notebooks/vrae.pth (torch, 998751 bytes, 24 tensors)

encoder.model.weight_ih_l0 f4 [400, 2]
00000000: 86ae 753c fca2 b03d e6f1 55bd 16a2 f0bc
00000010: ded2 fa3c d051 bcbc aaa3 9b3d b4b5 1ebd
00000020: e65e ec3d ff67 ccbd 9c01 d83d bbd9 21bd
00000030: 6716 e83d 051b cfbd 85c4 733d 40ec aebc
00000040: 544a 5dbb fe13 cfbd 5ccd c43d 356a 7dbd
00000050: 9dc1 90bb 10aa ae3d eaba 4abc 5dfa 92bd
00000060: cb37 e73d fe7b 09bd 0e63 9a3d 4dba 84bc
00000070: d451 843d 62fa 69bc 6e49 913d da6a 9ebd
00000080: 5183 da3c faf1 893d fd99 933d 1a62 fc3c
00000090: 94f3 5b3d bfce 9b3d e066 cc3d b79b da3b
000000a0: e4b7 253d 43b1 2cbd 1446 89bd 62ea 40bd
000000b0: e565 143b f3ec a7bc c84a 2f3b 3084 263d
000000c0: 6926 28bc 96f5 0dbd cc98 90bd dd4d 2b3b
000000d0: 6869 c73d 304f 543c f4bb 63bd d9a9 6fbd
000000e0: 2aae ca3d 04a0 ba3d 607b c53b 83fc 993d
000000f0: 8861 d63d 7b9a a1bd bb74 2bbd 5712 abbd
00000100: 636e 433d 0101 c63c 930e fc3c e436 813d
00000110: 183a 17bd 6280 47bd 5ad8 353c 63a2 92bd
00000120: 3ed1 afbb 0abb 6dbd f630 84bc e777 7d3c
00000130: 7ce3 913d f0c0 b5bd 51ec d73d e2c0 9bbc
00000140: e675 fdbc 227c 52ba 28d7 92bc 8e21 b8bd
00000150: e21f 80bc 486e d53d f034 17bd 0a76 8f3b
00000160: 186d 293d 4acb 1e3b 1e2c 833d 4edc 1bbc
00000170: 4745 9e3d f3de 0ebb 31c3 b33d cd53 99bd
00000180: c506 8b3d 5507 a7bd b751 f2bb c0f9 8d3d
00000190: fa99 92bd 3722 7a3d 028d e2bc 233a 9c3d
000001a0: 8706 923d bd5e 273d b485 53bd 50a7 1e3d
000001b0: b833 423d bff9 f1bd 19a9 9dbd f190 5d3d
000001c0: 25cb d63d 4a95 49bd 20eb 5fbd 470b 9abd
000001d0: 2700 bbbc ae3f a7bd 71cb 2c3d 63f2 0f3b
000001e0: f411 eb3c 1651 9f3d 7923 b63d 032e a53d
000001f0: 0cb5 9cbd 2287 9fbd 9c7a 88bd 91df acbd
00000200: 8a6f 74bd 71cc c73c eb0e cdbc e9d5 0cbd
00000210: 7f9c f63d 7fae 9e3c b18a 843d 7fd5 e93c
00000220: 3fa8 4ebd e4c0 9cbd 064a 7bbd f8b6 67bd
00000230: 6275 553c a988 96bd e78f 5ebd 41bf 4ebc
00000240: bbc4 b03c 3e39 a1bc f533 22bd f880 953d
00000250: 5803 b63c 06dc d0bc 91ef 023d e3ff 59bd
00000260: 9d89 2dbd 1ea5 babc 3e97 28bc 85f8 0b3d
00000270: 6c3e 84bd ee3d 8ebd b212 e03c 271c c9bd
00000280: 2dd8 2dbd 52ae 6cbc 30c3 863d 8724 9abd
00000290: 6c09 4c3c d4db 063d dc37 20bd 63c6 ccbc
000002a0: 9895 d03a 3f67 1bbd 8d08 3b3d edbb 8cbd
000002b0: dbba d13b 7c4e 59bc 44d2 98bd f8aa 3c3d
000002c0: 87d1 b43d b969 903d abab 2abd 2de8 c1bc
000002d0: cc29 213d 185b 0cbd 68a2 303c 624d 8e3d
000002e0: 90f6 933d 506a 043e a77c 9d3d f8e6 b7bd
000002f0: fea9 dd3c 32c5 513d 96e9 aa3c 2f7c c0bd
00000300: e4d6 3f3d 2cb7 d83b bc15 833c 1f5e 513d
00000310: cdc3 c7bc 1404 613d fee4 d23c abe4 96bd
00000320: f134 9ebd 11c2 453d 9fb1 7ebb faeb 99bd
00000330: afe3 3b3d 9eef 8cbb 7d86 15bd 8b0c 5f3d
00000340: d5ad 0b3d 379a af3d 9854 c9bc fdc6 163d
00000350: 5be4 b53d 0fa1 c1bd 2d5a b03c 38f9 2bbd
00000360: 0f53 773c 1b45 90bd e437 0d3d 1d34 54bd
00000370: 9e53 3cbd f1bb 40bd 7774 e3bc cc4b f7bc
00000380: c04e e9bc cc1f 22bb 34a5 4e3d 1d8e f63c
00000390: 0db8 f53d 712a 503d fee8 ba3c 0056 ba3c
000003a0: 1698 7ebd f819 e93c bdeb ef3d 89ff 5b3d
000003b0: 86f3 983d 64e8 6cbd 851b 4f3d b35f 743d
000003c0: cff6 793d 36bf 9cbd 7b8d 693d a0b0 bd3d
000003d0: edc8 90bd e677 45bd 438c b53d ae7c 80bd
000003e0: dfc7 21bd 060f 6dbc 8152 ca3d b639 9c3d
000003f0: 44be 5fbd 2612 7abc 4e39 ad3d 1bed a93d
0.014995223 0.08624837 -0.052232645 -0.029374164 0.030618127 -0.02298823 0.07599576 -0.038747504
0.11541538 -0.09980773 0.10547182 -0.039514285 0.11332398 -0.101125754 0.059513588 -0.021352887
-0.0033766227 -0.10111235 0.09609482 -0.061868865 -0.0044176118 0.085285306 -0.012373665 -0.07176659
0.112899385 -0.033565514 0.075384244 -0.016202116 0.0646092 -0.014280887 0.07094084 -0.07735224
0.026673945 0.067356065 0.07207105 0.030808497 0.05369909 0.07607793 0.09980559 0.0066713947
0.040458575 -0.042161237 -0.067028195 -0.047098525 0.0022643742 -0.020498728 0.0026747454 0.040653408
-0.010263064 -0.034658037 -0.07060394 0.002613894 0.097369015 0.012958333 -0.055599168 -0.05851159
0.098965004 0.09112552 0.0060266703 0.07518866 0.10467821 -0.07890793 -0.04185937 -0.083531074
0.047712695 0.0241704 0.030768668 0.06309298 -0.036920637 -0.04870642 0.0110989455 -0.07159879
-0.00536552 -0.058039702 -0.016136628 0.0154704815 0.07123467 -0.088746905 0.10543121 -0.019012872
-0.030940007 -0.00080293615 -0.01792486 -0.08990775 -0.015640203 0.10421425 -0.03691572 0.004378085
0.041363806 0.0024230056 0.06404899 -0.009512974 0.07728057 -0.0021800369 0.08777464 -0.07486687
0.067884006 -0.08155695 -0.007394995 0.06932402 -0.07158275 0.061067786 -0.027655128 0.07628276
0.07130151 0.040861834 -0.05164118 0.03873378 0.047412604 -0.118152134 -0.076982684 0.054093305
0.104879655 -0.04921464 -0.054667592 -0.07521682 -0.022827221 -0.08166443 0.042186204 0.0021964542
0.028695084 0.07779138 0.088934846 0.08065417 -0.076517195 -0.077894464 -0.06664011 -0.084410794
-0.059676684 0.024389477 -0.025031528 -0.034383688 0.12041568 0.019370316 0.06471766 0.028544186
-0.05045342 -0.076539785 -0.06134989 -0.056570977 0.0130284745 -0.073502846 -0.054336455 -0.012618841
0.021578183 -0.019680616 -0.03960033 0.072999895 0.022218391 -0.02549554 0.03196675 -0.05322255
-0.042367566 -0.022783812 -0.010289965 0.034172554 -0.064572185 -0.06945406 0.027352665 -0.09819823
-0.04244249 -0.014445858 0.06580198 -0.07526498 0.012453418 0.03292449 -0.03911577 -0.024996942
0.0015913723 -0.03794026 0.04566245 -0.068717815 0.0064004487 -0.013263341 -0.0746198 0.046061486
0.08829027 0.07051415 -0.04166762 -0.02367028 0.0393465 -0.03426656 0.010780908 0.06948353
0.072247624 0.1293118 0.07689791 -0.08979601 0.027058598 0.05121345 0.020863336 -0.09398686
0.046835795 0.0066136327 0.016001575 0.05111515 -0.024385357 0.05493553 0.025743958 -0.07367834
-0.077249415 0.04828078 -0.0038863195 -0.07515712 0.045871433 -0.0043010255 -0.03650521 0.05445532
0.034101326 0.08574336 -0.02457647 0.036810864 0.08881446 -0.094545476 0.021527374 -0.04198572
0.015095486 -0.07044431 0.03447713 -0.05180751 -0.04597818 -0.047054235 -0.027765496 -0.03018751
-0.028479934 -0.002473819 0.05045052 0.030097062 0.119979955 0.050821725 0.022816177 0.022746086
-0.06215676 0.028454766 0.117148854 0.053710494 0.074683234 -0.057838812 0.050563354 0.05966158
0.06102639 -0.07653658 0.057019692 0.09262204 -0.070695736 -0.048210047 0.088646434 -0.06273781
-0.039497253 -0.014468914 0.098790176 0.07628195 -0.05462481 -0.015263116 0.084581956 0.082971774

encoder.model.weight_hh_l0 f4 [400, 100]
00000000: a9b0 503c 65f8 2f3d 2e50 e0bc c201 e03d
00000010: 66b8 eebc 91d7 e53d 98e0 e3bb a0c9 d6bd
00000020: 026b 003c 3dc2 17bd 35d9 a1bc 6e1b a03d
00000030: 7f5b 633d 576a 9fbc c62a 2d3c 0c5b 2c3d
00000040: 0c0a 043c a2a6 c1bd 1969 a6bd bccc babc
00000050: c652 9c3d eeb3 d53c 7398 f13c b1d6 073d
00000060: 8d03 21bc 8d9c 6e3d 2de0 c73d fe4d 0b3d
00000070: 77ab 973d 7a48 aebc fff2 b23d c434 93bd
00000080: 82e2 8f3d 5b2e 42bd 5947 033d eb04 ed3c
00000090: a1e3 1c3d fe1b 68bd 4c58 ebbd 2f59 d5bd
000000a0: 8a44 ee3c 5c1f d03d bce9 a0bd cc3d e23b
000000b0: e55b a53d dade 943d 4837 a8bc ebdf 3bbd
000000c0: 5260 dabd 6de7 a7bc 01ad c63c b51f db3d
000000d0: 79eb 9b3d 097f b0bd 6833 9b3d 791f 96ba
000000e0: 370b a93d bf91 e5bd e8d9 28bd 39ee 1ebd
000000f0: 14e5 343d 0496 a53d d017 e0bd 03cf d9bb
00000100: 03da e83d fd52 663d b203 95bd 97fb 35bc
00000110: 3380 81bd 3fec 90bd 5b93 6b3d 8946 65bd
00000120: 1c73 503d 9152 48bd 7cb8 85bd 25dd 0fbd
00000130: 6af5 eb3d 5dc8 c9bc b9d8 cc3c fc6e dd3b
00000140: dfba 34bd c846 983c 983e 7cbd 8ef1 a3bc
00000150: a245 debd f757 9fbd 217b 2e3d 57fd ba3d
00000160: 4036 c7bd c84b 963d 3480 58bd 76c5 e63d
00000170: 3b4c d5bc 0251 ae3d 897b 813d ec06 89bd
00000180: 7a09 ae3b 43a1 cf3d 84d4 8fbd 6074 89bd
00000190: c778 7cbd b6b0 28bd 8661 893d b205 993d
000001a0: 41cd 753d ac1b c83d a6ca 9d3c 8874 1dbc
000001b0: 4cdc 41bd fa1a e3bd 39c9 493d a216 6c3c
000001c0: 046f 7f3d 3163 fcbc 823d 0dbd 1ebf 63bd
000001d0: e117 df3d 21f4 973d 9934 993d da6e 8a3c
000001e0: 0b51 f2bc 398c 8fbd f837 8dbd 3e6c 9d3c
000001f0: 7c99 8abd f68a 9a3d 699d 003d 2152 fdbc
00000200: 2ec5 583d d5ee babc b4e7 0f3d fc79 553d
00000210: 61f4 c93c d4c9 86bb a06a 043d f4ee a03d
00000220: b3d1 adbb 97a7 1cbd d8c6 053d d253 1bbd
00000230: 9667 59bd 4444 80bc 4f92 67bd 060e 60bd
00000240: 9636 74bd 2be9 4abd 0447 c03c 67dc 24bd
00000250: 2179 143d 2028 33bc 3411 933d a1ed 693c
00000260: 62a7 37bd e10a 67bb 288b 903d 8f9b 94bd
00000270: cef2 5cbd 17e8 b4bd 55ca 123d a03f 863d
00000280: 283e de3d b70b 77bd ffee 153d 2459 a53d
00000290: be44 80bc b924 d6bd 12ca 0ebd 002c 183d
000002a0: fa82 143d 60ab 8bbb 73bd e83d ec94 afbd
000002b0: 46df 63bd 2ec1 3e3c 15e8 82bb 1a99 803b
000002c0: f520 63bc fa6b d0bd edd3 b5bc 3660 4f3c
000002d0: c5f3 4e3d 65cf 5d3d 8b2a b93c 7e25 c43c
000002e0: 92dd 97bd cbd4 39bd 34c5 9dbd 7285 9e3d
000002f0: b727 ecbc 86f7 aa3d c494 cd3d 1650 6e3d
00000300: 194f 983d b97a 80bd 5d57 a6bd 264d b0bc
00000310: 655e b53d 46a4 91bd 4a77 afbd 343c b53c
00000320: ee47 3e3d 656f 8e3d 379b fe3a dcd1 8abd
00000330: bb7a 09bd 5735 39bd 4d19 8fbd 712c 263c
00000340: 1ada 673d 36a7 273c 9ba2 25bd 0f8d bb3c
00000350: 7c4f 94bc e33d cf3b 7ed4 96bc 0331 513d
00000360: 5c84 84bd 6532 ddbd da36 8cbc a2ea 503d
00000370: 18af 63bc 71ad dd3c b46e ab3c 03e7 b33d
00000380: 29b9 8f3c 9961 e63c 3552 b33d 8639 83bd
00000390: b190 3bbd 61f6 83bc f334 923c bb78 dcbd
000003a0: 0924 783d 53e8 9a3d 3953 64bd a357 c33b
000003b0: c8e1 b03d 57b8 783c 88c8 003d f9e1 b5bd
000003c0: b377 e6bd 8f1d b33d c0c4 a33d f8e9 b83d
000003d0: 2548 6a3d 17d0 913d f23b a93d ec64 7c3c
000003e0: 9eb9 9b3d a0d5 34bc b055 273d 4b03 ba3c
000003f0: bc1d 8abb 55ab 3ebd a58b c8bc 332d a33d
0.012737432 0.042961497 -0.027381983 0.10937835 -0.029140662 0.11222757 -0.006954264 -0.10487676
0.007838013 -0.037050474 -0.019756893 0.07817732 0.05550718 -0.019459886 0.01056928 0.042079017
0.008059036 -0.09455611 -0.081255145 -0.022802703 0.07632975 0.026086774 0.029491639 0.03316373
-0.009827507 0.058254767 0.09759555 0.034009926 0.07405751 -0.021274794 0.08737754 -0.071877986
0.07025625 -0.04740749 0.032050464 0.02893301 0.03830302 -0.05666732 -0.11491451 -0.10417401
0.029085416 0.10162231 -0.07857081 0.0069043394 0.08074168 0.07269068 -0.020534173 -0.04586784
-0.10662903 -0.020496095 0.024252417 0.10699407 0.07613272 -0.0861798 0.07578164 -0.0011453471
0.08254092 -0.112094395 -0.041223437 -0.038801406 0.04416378 0.08085254 -0.10942042 -0.006646992
0.113697074 0.056231488 -0.072760954 -0.011107347 -0.0632328 -0.0707631 0.057513576 -0.05597547
0.050891027 -0.048906866 -0.06529328 -0.03512301 0.115214184 -0.024631673 0.025005685 0.006757615
-0.044123527 0.018588439 -0.06158313 -0.020012643 -0.10853125 -0.0778045 0.042597894 0.09130352
-0.09727144 0.07338673 -0.05285664 0.112681314 -0.026037326 0.08511545 0.063223906 -0.06690773
0.0053111883 0.1013818 -0.07022956 -0.0671165 -0.06163862 -0.04118415 0.06708054 0.074717894
0.0600102 0.09770903 0.01926167 -0.009610303 -0.047329232 -0.1108913 0.049264167 0.014409693
0.062361732 -0.030809017 -0.034482487 -0.055602185 0.108932264 0.07419611 0.07480735 0.016898561
-0.02957966 -0.07009167 -0.06895441 0.019216653 -0.06767556 0.07546036 0.031400118 -0.030922951
0.05292242 -0.022818962 0.03513308 0.052118286 0.024652662 -0.0041134153 0.032328248 0.07858077
-0.005304539 -0.038245764 0.032660335 -0.037921734 -0.053077303 -0.015657552 -0.056536015 -0.054700874
-0.05962237 -0.049538773 0.023471363 -0.040249255 0.03624833 -0.0109348595 0.071810156 0.014277847
-0.044837363 -0.0035254287 0.07057792 -0.07256233 -0.053942494 -0.0883333 0.03583749 0.06555104
0.10851699 -0.060313907 0.036604878 0.08073643 -0.015657779 -0.10456223 -0.034860678 0.037151337
0.03625772 -0.004262373 0.113642596 -0.085733265 -0.055632852 0.011642737 -0.0039949515 0.003924501
-0.013862838 -0.10176845 -0.02219578 0.012657216 0.050525445 0.054152865 0.022603294 0.023943659
-0.07415308 -0.04536895 -0.07703629 0.077402964 -0.028827531 0.083479926 0.100381404 0.058181845
0.07436962 -0.062734075 -0.08122132 -0.021521162 0.08855895 -0.07111411 -0.085676745 0.022123434
0.046455316 0.069548406 0.001942492 -0.06778309 -0.03356431 -0.045216884 -0.069872476 0.010142432
0.056604482 0.010232737 -0.040438276 0.02289441 -0.018104307 0.006324516 -0.018411871 0.05107213
-0.06470558 -0.108006276 -0.017115999 0.051005013 -0.013896726 0.027060242 0.02092681 0.08784296
0.017544346 0.02812271 0.08755914 -0.06407456 -0.045792285 -0.016108694 0.017847514 -0.10765215
0.06058124 0.075638436 -0.05574343 0.005961375 0.08636814 0.015180669 0.03144124 -0.088809915
-0.112532996 0.08745872 0.079965115 0.09029001 0.05719771 0.07119768 0.08263387 0.015404921
0.07603763 -0.01103726 0.040853202 0.022706648 -0.0042149704 -0.046550114 -0.02448065 0.079676054

encoder.model.bias_ih_l0 f4 [400]
00000000: 6f52 4e3d f0b4 c6bc f391 20bc 2418 7abd
00000010: 2c19 a33d 6378 2cbc 4500 993d 41d2 743d
00000020: 8b47 8abd 624f cf3d e768 82bd f096 2f3c
00000030: 5fae 033d 354c c1bc 32eb 183d e62e 0b3d
00000040: 2775 be3d b5df 0bbd 7b9b 933c 8c83 a43d
00000050: 792a e73d b4c5 4f3a 880a e8bc 6236 29bd
00000060: aae3 343d 31b6 dc3d e4c6 c0bd 4c9c b73d
00000070: cfb5 91bc 48a8 553d 6098 f4bc ac43 6f3d
00000080: 076e b33b 9cac d5bc 16de fdbc e647 5abd
00000090: 919f 33bd 4d0c 9abd 9e61 a7bc 40b7 2ebd
000000a0: 2b38 993d 0316 95bc 2dcf d93d bb09 893d
000000b0: f293 cd3d ada7 bb3d 04db a43d c36f b83d
000000c0: c6a5 11bd 9efe 4a3d 72ea 11bd 061f 63bd
000000d0: 13e8 273d ed04 ddbb de61 073d 63fd 35bc
000000e0: 2fb4 10bc e3f0 243d 641a 94bd e71b 8bbd
000000f0: e725 653c 36bb 623d c3b4 b93d 4b58 febc
00000100: 0556 6f3d a421 b93d ba87 a8bd aaa9 bfbd
00000110: 4385 9b3d deb0 243d 159c 0bbd 4fbd 93bd
00000120: 845f 153d 2209 3cbd 9c8d b9bc 1f4b 8ebc
00000130: 925a d33d f020 02bb 9fd2 5c3c da50 143d
00000140: 137e 45bd e11d 863d 023a 1c3d 9001 5c3d
00000150: 2f67 633d 195c a4bc 7b8f 96bd 2888 b63d
00000160: c1dc 933d d652 bc3d 962d d23d dd7c 0dbc
00000170: 4594 623d f168 983c 62ce 66bd 2d6e 7cbd
00000180: 4d59 7d3b 401f 223d eb08 8a3d df16 84bd
00000190: 4a61 e23d 7bf5 953d 8668 65bd 3612 b63d
000001a0: 5b97 acbd 79ee 8c3d 2bf4 553d 8e65 9c3c
000001b0: 5ccb 463d bf31 353c 99a2 36bd eb6c 1ebd
000001c0: 34db d23d 045e 663d 7495 08bd 7c44 163b
000001d0: feb8 9c3d 23fa 8ebc db78 84bd b552 a3bd
000001e0: 780b c73d d2f9 883d 8f6d a2bd c6f8 d63d
000001f0: d0c4 0dba 55e9 42bd 7caa c9bd 740e 90bc
00000200: 4d3d 9a3c acb0 0dbd 0d7d 793d a37b 063d
00000210: ffa9 33bb 8410 87bd 7322 da3c 876a 71bd
00000220: b0d5 d13d b721 a8bc ab77 ed39 579f e1bc
00000230: 18ce b03d 97cc 283d 4999 76bd e344 ca3d
00000240: 7c1b 473d a43b 663c 5654 663c bcd3 953d
00000250: 1c3b a63d 9449 94bd d6b3 89bd a9e9 303d
00000260: 2414 b23d 253f 983d e79f 25bd ec98 17bc
00000270: ac96 7abb f126 be3d 4cf8 86bd 4ae0 ac3d
00000280: 3b2b bf3d 930e d73d 3d45 9b3d 2eae fcbc
00000290: 12cb 6fbd 0c6c 3d3a b8f6 b2bd 79b8 64bd
000002a0: d46f bc3b eb5e 70b9 be02 60bc 538d 38bd
000002b0: 9b21 2cbd b1da ab3c 2a86 9fbd 6b6b 243c
000002c0: 1031 053d 845e b53d 9bb9 3f3c fce4 8d3d
000002d0: edce 043d ecc5 59bc 2203 1e3d 881e a83d
000002e0: b936 963d 0591 9d3d ba18 c63d 4691 a9bd
000002f0: 7501 be3c 9e7a ba3c 4af0 a8bd c420 86bc
00000300: b43b 7cbd 5105 01bc f8ed 493d 86a3 7b3c
00000310: d98e 94bd 064c 493d b35f ec3d 925a 953c
00000320: e415 8ebc 5001 babd ec90 29bd eabd a8bd
00000330: 11f8 90bd 7fbd 773d 568c 453d 115e 76bd
00000340: 683f d23d 18cc 88bd 84b5 2f3c 2b2e cd3c
00000350: 66ce 9cbd b876 313c bff8 333d 3426 9d3d
00000360: c321 e2b9 7d21 c0bd 9bf1 8b3d 15d8 a6bd
00000370: e64c a6bb 2736 25bd 0938 aabd 797d 99bc
00000380: 7731 263d bf16 99bc a000 b23d 6369 30bd
00000390: 4bef 3bbc 8d22 8fbc 95b6 21bd d82f adbd
000003a0: f528 013d 0171 9bbd a113 a9bc 830f cb3d
000003b0: 14d8 513d 65a8 d1bd 5938 52bd 5e75 2d3d
000003c0: dd1b cdbd ae64 35bd b008 983d c57e 4ebd
000003d0: 3d30 afbd 02dc 443d d747 a8bc 1c26 b33b
000003e0: a296 b03b 9a44 8bbd bb67 123a 3702 59ba
000003f0: 88cd 3b3d fdf1 12bd 2462 ec3a f65e 9ebd
0.050371584 -0.0242562 -0.009800422 -0.06105818 0.079637855 -0.010526749 0.074707545 0.059770826
-0.06751927 0.10122563 -0.06367665 0.010717139 0.032148715 -0.023595909 0.037333675 0.033980273
0.09299689 -0.03414889 0.018018475 0.08032903 0.11287398 0.00079258834 -0.028325334 -0.04131163
0.04416243 0.10776938 -0.094129354 0.08965358 -0.017786888 0.05216244 -0.029857814 0.058414146
0.0054757628 -0.026083283 -0.030989688 -0.053291224 -0.043853346 -0.075218774 -0.02043229 -0.04265523
0.07481416 -0.018198973 0.10635219 0.06691309 0.10037984 0.09162841 0.080495864 0.09005692
-0.035558484 0.049559228 -0.035623975 -0.055449508 0.040992808 -0.006744972 0.033052318 -0.011107775
-0.008832022 0.04026879 -0.07231596 -0.06792431 0.013986087 0.05535432 0.09067681 -0.03104796
0.058431644 0.090396196 -0.08229013 -0.09358533 0.07593777 0.040207736 -0.0340844 -0.07213842
0.036468044 -0.045907147 -0.022650532 -0.017369805 0.10320009 -0.0019856058 0.01347795 0.03620992
-0.048215937 0.06548668 0.038141258 0.053712428 0.055518325 -0.020063447 -0.073515855 0.089126885
0.0721984 0.09195487 0.10262601 -0.008635727 0.055317182 0.018604727 -0.056349166 -0.06162851
0.0038657964 0.039580584 0.06739982 -0.06449675 0.11053713 0.07322212 -0.056007884 0.08890192
-0.08427306 0.068814225 0.05223481 0.019091394 0.048533782 0.011059224 -0.04458866 -0.03867809
0.10295716 0.056242004 -0.033345655 0.0022929003 0.07652472 -0.017453259 -0.06468364 -0.079747595
0.09718984 0.066882744 -0.07931053 0.104966685 -0.00054080505 -0.047585804 -0.098469704 -0.017585017
0.018828059 -0.034592316 0.060910273 0.032832753 -0.0027414558 -0.06594947 0.026627755 -0.058939483
0.10245836 -0.020523889 0.00045293322 -0.0275418 0.08633059 0.041210737 -0.060204778 0.0987642
0.048610196 0.014052305 0.014058193 0.07315776 0.08116743 -0.072405964 -0.06723754 0.043191586
0.08695248 0.07433919 -0.040435698 -0.009252768 -0.003823678 0.09284771 -0.065903276 0.08441217
0.093344174 0.10500827 0.075815655 -0.030844774 -0.058543272 0.0007225878 -0.08738464 -0.05583999
0.0057506356 -0.00022923543 -0.013672529 -0.045056652 -0.042024236 0.020978304 -0.07789262 0.010035376
0.032517493 0.08855918 0.011701967 0.06928441 0.032423902 -0.013291817 0.038577206 0.082089484
0.07334656 0.07693676 0.09672685 -0.08279662 0.023194054 0.022763547 -0.082489565 -0.016373046
-0.061580375 -0.007874803 0.04929921 0.015358811 -0.072538085 0.049144767 0.11541691 0.018231664
-0.017344423 -0.090822816 -0.041397974 -0.08239348 -0.07078565 0.060483452 0.048229538 -0.060148302
0.10266 -0.06679553 0.010724429 0.025046429 -0.07656555 0.010831527 0.043938395 0.07673302
-0.00043131234 -0.093813874 0.06833192 -0.08146683 -0.005075085 -0.040334847 -0.08311469 -0.018736588
0.040574517 -0.018687604 0.086915255 -0.043069255 -0.011470626 -0.01747253 -0.039480764 -0.08456391
0.0315332 -0.07589913 -0.020639243 0.09915068 0.05123146 -0.10237197 -0.05132327 0.04234826
-0.1001508 -0.04428547 0.07423532 -0.050413866 -0.085541226 0.04806138 -0.020542068 0.0054671895
0.0053890506 -0.06800194 0.0005584915 -0.0008278223 0.045850307 -0.03587531 0.0018034619 -0.07732956

encoder.model.bias_hh_l0 f4 [400]
00000000: a5c4 3bbd 3e68 283d 2c05 82bc 3c64 c73d
00000010: 6c0f aa3c 4f66 f73b fb39 94bc 950f 88bd
00000020: 9c92 b83d c7fb e43d d5f2 c03d 27f9 7f3d
00000030: a865 1abd 9ed8 cfbc 12a8 d73d 40ac 553c
00000040: 3004 f83c 7b3c 9cbd 5f2f 42bd 898b 13bc
00000050: 6032 a7bc cc05 9c3d 8417 3d3d 28ee 8abd
00000060: 7681 ac3d d264 b93d 85ce 803d 4053 b0bd
00000070: 1059 98bd 78c9 ce3c 5e43 2c3c 1bb4 5a3d
00000080: c97d 433d e9a7 dabc d34e 09bd bf24 1b3c
00000090: b54b 173d 874c 9a3d ede5 993d 3198 683d
000000a0: aac5 433c de95 893d 09ab 303d da25 5b3c
000000b0: 6a07 903d 8053 04bc 7e1b 8cbd e3e0 20bc
000000c0: b9b4 2a3d bc89 82bd a7dc 9fbd a95d 923d
000000d0: 9d20 523d 4409 7e3d aab3 10bd 1caa b03d
000000e0: 0ca9 8b3c 8f0f 633c 3bd6 623d 5104 603d
000000f0: 8453 eb3c 4392 86bd 5f50 0dbb 617e 953d
00000100: 4cc7 9b3d 917b 3ebd b356 a9bd 083b 003d
00000110: e741 c63d 5aca 293c 879c 9c3d 5fab 953d
00000120: 198d 49bd 0766 22bd d01f b33d 4124 6fbc
00000130: 6cec a5bc 5a53 8d3a f80b 393d e1cb 49bd
00000140: 865d c43d be7b 45bc 9d19 51bd bc25 e13a
00000150: 6d24 5fbd 6258 cb3c 8fbf a1bd 9220 bbbd
00000160: 02fd b03c 8a75 613c 815b 48bd aead e5bc
00000170: c7ec 47ba ae7f dc3d a97c 043d 3d0d aebd
00000180: 65e0 623a 9659 f4bc a98d ed3c b00f ae3d
00000190: 81a4 1d3d 5229 883b 91b7 3dbc e7fa 603d
000001a0: 8b36 a53b 40e6 f03d b307 973d 6b16 e03b
000001b0: 6381 db3d 7787 8dbd 4c83 be3d c935 97bd
000001c0: 72c8 5cba 769e 2cbc b957 31bc b2f8 a0bd
000001d0: cbaf 97bd 09aa 043d 2328 97bd 1d70 91bc
000001e0: 8959 8d3d c030 8c3d bb53 823c 2a4a 5b3d
000001f0: 38d6 b43d 6b26 37bd ebdd b93d e0f6 60bd
00000200: 5b6a ca3d 25b9 3cbd 128c 513d 6f8b f0bc
00000210: e36c 9dbd cef7 733d 984a 7ebd f35c cd3c
00000220: 5a83 d03d 8f46 9e3d 750c b63d f9f2 a8bd
00000230: b6c9 a2bd 00b0 34bd 95f5 3dbc 3ebf fcbc
00000240: a9b3 9d3d ec10 bebc 82ee b43d 6882 8dbd
00000250: 6661 8d3d 2cbb 0e3d 05b5 0e3d 2067 7c3d
00000260: 1c06 b0bc 6696 e33d d4a0 acbd 6bbf 21b9
00000270: a0bf 923d 751b 913d ceae 473d 5fb2 b8bc
00000280: 00f5 aa3d 7a21 c93d b743 dd3c 56ab 443d
00000290: 8b25 9fbd 31c8 e6bc c8bd b83d 18c9 65bd
000002a0: 9211 acbc c817 a43d db81 ef3d efe2 b83b
000002b0: 7818 1dbd f93f 9a3d a365 803d 1de1 403d
000002c0: 77ee 0b3d 4fc1 9e3d 86c7 673c ed91 7b3d
000002d0: b449 bc3d cb49 b83b a426 32bd 05c4 093d
000002e0: f8d8 70bb 1cfe 983d 00e1 bf3d b7a7 9d3c
000002f0: a2a5 b53c 678e 043d 3eec 98bc 72b4 98bc
00000300: 16d3 1f3d 326c 953d d077 33bd 38d6 153d
00000310: 18c0 6abb 884e 353d c166 a23d a938 223d
00000320: bb27 b5bd e33a 8dbc 4e8c c13d 8dfa 933d
00000330: 6d03 623d 4415 a8bd 6c6b 003d 635b b3bd
00000340: 4fbf a1bd d872 a13d 2f2e d53d 8113 353d
00000350: 0b5f e7bc 4d1c fdba 04f8 35bd f391 87bd
00000360: 999a 963d 15cb 85bd 14af 503d 0651 74bd
00000370: cda1 aabc 845f a8bd 4c8f 9fbb d3ee 3e3c
00000380: f3e9 203c f525 60bc c803 84bd e5d3 853d
00000390: 6720 663d c534 c23c ebed a43d 79d0 bcbd
000003a0: 08e2 91bd 3518 cebc 5e32 cebc 7ff8 243d
000003b0: 8739 cf3d 77c7 993d 4c36 07bd b939 b33d
000003c0: c60f 1e3c 1396 bb3d 503f 66bd ef1d 0e3d
000003d0: 1a9e b93d 3d92 ae3d 4e63 803d 390f d1bc
000003e0: f43b 013b f372 b4bd 9014 8e3d f003 d83d
000003f0: 1495 cebd 9aee b9bd 3a04 a03d 2022 ad3d
-0.04584183 0.041115038 -0.015871607 0.09735915 0.020759307 0.007550038 -0.018094053 -0.06643597
0.090123385 0.11180835 0.094213165 0.06249347 -0.037694603 -0.025371846 0.10530104 0.013041556
0.030275434 -0.07628723 -0.047408458 -0.009005436 -0.020409763 0.07618293 0.046165004 -0.06783706
0.0842313 0.09052433 0.062893905 -0.08609629 -0.07438862 0.025242552 0.010514108 0.05339442
0.04772738 -0.026691394 -0.03352244 0.00946921 0.036937434 0.07534128 0.07514558 0.056785766
0.011948982 0.06718038 0.04313186 0.013375724 0.07032664 -0.008076549 -0.06841181 -0.009819242
0.041676257 -0.06373927 -0.07805758 0.071467705 0.051300634 0.062020555 -0.03532759 0.08626196
0.017048381 0.01385869 0.055380087 0.054691616 0.028726347 -0.06570866 -0.0021562797 0.072994955
0.07606372 -0.04650456 -0.0826849 0.031306297 0.096805386 0.010363186 0.07647043 0.07308077
-0.049206827 -0.039648082 0.08746302 -0.014596046 -0.020254336 0.0010782287 0.04517743 -0.0492667
0.09588151 -0.012053428 -0.051049817 0.0017177383 -0.054478098 0.024822418 -0.07897865 -0.09137072
0.021605019 0.013760934 -0.04891539 -0.028036918 -0.000762653 0.107665405 0.032345448 -0.08498619
0.0008654653 -0.029827874 0.028998213 0.08499086 0.03848696 0.0041553164 -0.01157941 0.05492678
0.0050419024 0.11762667 0.073745154 0.00683861 0.10718038 -0.069106035 0.09302387 -0.073833056
-0.00084222027 -0.010535827 -0.010824137 -0.07859935 -0.07406577 0.03238872 -0.07380702 -0.017753655
0.06901843 0.06845236 0.015909066 0.053537525 0.088299215 -0.044714373 0.090755306 -0.05492294
0.09883567 -0.046075005 0.051158972 -0.029363362 -0.07686784 0.059562497 -0.062082857 0.025068736
0.10181303 0.07728302 0.08889095 -0.08249468 -0.079486296 -0.04411316 -0.011594196 -0.03085291
0.07700283 -0.023201428 0.08834554 -0.06909639 0.06903343 0.03484647 0.034840602 0.061621785
-0.021487288 0.111126706 -0.08429113 -0.00015425465 0.07165456 0.07085315 0.04875069 -0.022545991
0.08347511 0.09820838 0.027009828 0.04801496 -0.07770833 -0.02817163 0.09020573 -0.05609998
-0.021004472 0.080123484 0.1169469 0.005642287 -0.038353413 0.07531733 0.06269386 0.047089685
0.034162965 0.077517144 0.014146691 0.061418463 0.09193745 0.005624031 -0.04349388 0.033634204
-0.0036750417 0.074703425 0.09369087 0.019245012 0.022173706 0.032362368 -0.018667337 -0.01864073
0.039019667 0.07296027 -0.043815434 0.036581248 -0.0035820063 0.044264346 0.07929755 0.039604817
-0.088454686 -0.017239993 0.09450589 0.07225523 0.05517905 -0.08207181 0.031352445 -0.08757665
-0.07897817 0.07883233 0.104091994 0.044208053 -0.028243562 -0.0019310802 -0.04442598 -0.066196345
0.07353706 -0.065328754 0.050948218 -0.059647582 -0.020829106 -0.08221343 -0.0048693772 0.01165362
0.009821403 -0.013680925 -0.06446034 0.06534556 0.056183245 0.023706803 0.08053192 -0.092194505
-0.0712319 -0.025158027 -0.025170501 0.040276047 0.10118394 0.07508748 -0.033010766 0.08751244
0.009647315 0.09159484 -0.056212723 0.034696516 0.090633586 0.085239865 0.06268941 -0.025519954
0.0019719573 -0.08810987 0.06937516 0.10547626 -0.10087028 -0.09078713 0.07813306 0.084537745

encoder.model.weight_ih_l1 f4 [400, 100]
00000000: f62f b63c 8cfc 333d b0ad 3e3d b9a5 903d
00000010: 1166 27bd 8ff5 21bc 7cd1 94bd f15e b4bd
00000020: f93f 713c 3357 873c c9db abbc 6832 e6bc
00000030: a7a8 073d 1ec5 0bbd 1c24 d6bd eab3 b6bd
00000040: be56 9f3d 0a96 e03b 0d92 9dbd 83ff a03c
00000050: 1d40 063d 3dc0 6bbd d0e9 d8bd 33db 48bd
00000060: e85f c6bc acb2 30bc 5282 8e3d 3cc9 533d
00000070: bc63 103d d1fa dabd d538 99bd a235 87bc
00000080: 13ec b1bd 3c5f a73d 8c89 ffbc 0c51 9fbd
00000090: ef33 8dba 022b 403d 0a8d 06bd 3345 cbbd
000000a0: de5e 6d3d 98d5 9bbd dba3 d83d bd58 5f3c
000000b0: cb24 88bd 6bd3 af3b cbcf 093d f7e5 38bd
000000c0: 3791 313d 49b1 89bb f313 cd3d 1d4a 11bd
000000d0: f018 52bd 979d c1bd 9d2c 96bd 1501 8b3d
000000e0: efe3 1c3d 0912 8bbc 02e5 b03c 66af a63d
000000f0: 6586 6abd 8f82 483c a4d0 4c3c e61d dc3d
00000100: d38e 883d 45e9 e23c 64d5 edbd 070a a5bd
00000110: beb7 ac3d fe50 3e3d 3cef e0bc ecde 123b
00000120: 23d9 8bbd 1e2b cabb 4bc6 22bd 1b6a 7abd
00000130: 2f68 cd3c 9113 34bc d4ff 33bd ea7a a1bd
00000140: 25a7 82bc cc8b c7bd 92ad 20bd c058 ee3d
00000150: 2a45 ccbd 91a6 f9ba da8f 3e3d 148e 093d
00000160: 86f6 aa3b 07d4 9ebd 8493 c3bc 769e bd3d
00000170: 24f0 033d 2b8e 4a3d 56ca 2ebd 4e27 debd
00000180: 3ff2 7cbd c2df 48bc f417 aa3d 2027 bebd
00000190: 100f 403b 0bc4 b33d 42ac f8bc 3733 393d
000001a0: c12b 17bd 4c71 3cbc 69e4 8c3c 3fc8 873c
000001b0: ae21 cd3d 7f96 1f3d 8729 d83d 7b48 d23d
000001c0: 1e48 dabd 9f0a 773d ae52 8e3d ea77 113d
000001d0: 3524 4c3d c492 b3bd 8008 8e3d e586 14bc
000001e0: b7cc 9bbb 0d1b e4bd 57e5 c03c bae5 a43c
000001f0: 4a40 9a3d f594 03bd 6d42 38bd 2766 50bd
00000200: 7bcb 55bd 2ce0 ad3c 1abe c5bc 1065 a0bd
00000210: 2dc9 25bd cb09 0b3c 0fe8 f6bd 4035 e73d
00000220: 7401 d63d 1a88 303c e45f 5dbd cc64 9abc
00000230: ef9b 843d 4f5d b53d a750 70bd 814c 07bc
00000240: 60a1 cebd e294 543d 4d9e 9ebc 2bbd dc3c
00000250: 0c85 c6bd 1a9a 2bbd a2c2 8e3d d739 a9bd
00000260: 1c63 c4bd 49fc c3bd aba1 36bd 7ed1 9e3d
00000270: de06 2b3d 1a15 943d 3e54 0abc 285e 9b3d
00000280: f8e6 5ebd 3187 aa3d 3724 993d 1478 86bd
00000290: 768b 6cbd ddb0 503d fe40 423b 003d 27bc
000002a0: e4a1 773d c5be 913d 674d e4bb 46ea c2bb
000002b0: fb67 0cbd 76ec 32bc 6531 11bb 7c7a cc3c
000002c0: c6f4 c8bc b19c 6cbd 8f86 633d 2325 94bd
000002d0: d04a 5cbd 260e be3c 729e 3ebd bb96 83bd
000002e0: 69f3 18bd eec6 e43d 032c d0ba fcfb 2b3c
000002f0: 7fdb 9f3d f841 823d 91e4 6bbd 5a09 e63b
00000300: 52e4 973d c04f 9dbd 1ac9 c43c 4517 76bd
00000310: 3703 c53d d4a7 85bd 6ae6 bdbb b6bf f83c
00000320: 9906 283d 0be3 a33d de4e 88bd d5fd 223c
00000330: d9cc 973d 0caf 6e3d 2395 5abd 20f0 edbd
00000340: 7876 b93d 30ed 36bd cb23 83bd 5d01 a03d
00000350: d76f 21bd 33d8 d2bc 6b3e b4bd 37c7 acbd
00000360: aa98 34bd 792f ee3c 40d6 61bd eb50 a63d
00000370: 897a ebbd 0263 38bd ac35 dbbd dc93 96bd
00000380: 9922 763d c045 913d 1f81 b53d 9f7b 23bb
00000390: de1f 7abd 0953 a6bb 615c edbc d2cb 493d
000003a0: 5c5c d8bd 7f64 c2bd b4f2 293d de87 2d3d
000003b0: 4207 46bd b8ef d6bd a4fc 84bd 0604 053d
000003c0: bd35 7dbd 7e8d 843b 8c6b 6cbd 55e9 48bd
000003d0: b5b4 e73c 083b a13d daf6 423d 39fa 2f3d
000003e0: 5768 4cbd 5256 ab3c 04d7 123d b5dd 4dbd
000003f0: c89a 883c 9141 b33b 9f8f 0f3d 267b 98bd
0.022239666 0.04394202 0.04655236 0.07062859 -0.040868822 -0.009885206 -0.072665185 -0.08807171
0.014724725 0.016521072 -0.020978825 -0.028100207 0.033119824 -0.034123532 -0.10456106 -0.08921035
0.07780217 0.0068538236 -0.076938726 0.019653087 0.032775987 -0.05755638 -0.10591471 -0.04903717
-0.024215654 -0.010784786 0.069584504 0.051705584 0.035251364 -0.10692371 -0.07481543 -0.016505066
-0.08687606 0.081724614 -0.031193517 -0.0777913 -0.0010772924 0.046916015 -0.03284935 -0.09925308
0.0579518 -0.07609099 0.10578128 0.013631997 -0.06647643 0.005365779 0.033645432 -0.045141187
0.04335138 -0.0042020422 0.10013571 -0.03547107 -0.051293314 -0.09453886 -0.07332728 0.06787316
0.038303312 -0.016976373 0.021593574 0.08138923 -0.057257075 0.012238159 0.012500916 0.1074789
0.066678666 0.027699122 -0.11612967 -0.08058553 0.084334835 0.04646396 -0.027457826 0.0022410704
-0.06828525 -0.0061696908 -0.03973989 -0.061136346 0.025074093 -0.010990993 -0.04394515 -0.07884772
-0.015948841 -0.09743461 -0.03922803 0.116380215 -0.099741295 -0.0019046833 0.046523906 0.033582762
0.005217376 -0.07755285 -0.023874052 0.0925874 0.032211438 0.04945199 -0.04267343 -0.108473405
-0.06175446 -0.012260379 0.0830535 -0.09284806 0.0029305853 0.087776266 -0.030355576 0.045214858
-0.03690696 -0.011501621 0.017198758 0.016574977 0.100161895 0.038961884 0.10554796 0.10267731
-0.106582865 0.060312863 0.06949364 0.03551475 0.049839217 -0.08768228 0.06935215 -0.0090653645
-0.0047546285 -0.11137972 0.023546858 0.020129073 0.075317934 -0.03212448 -0.044985224 -0.05087867
-0.052196007 0.021225058 -0.024138499 -0.07831776 -0.04047506 0.008486222 -0.120559804 0.112894535
0.10449496 0.010774637 -0.054046527 -0.018846892 0.064750545 0.08855688 -0.058670666 -0.008257986
-0.100893736 0.0518998 -0.019362593 0.026945671 -0.096933454 -0.04189501 0.06970717 -0.08262985
-0.09589216 -0.09569604 -0.044587772 0.07754801 0.041754596 0.07230587 -0.008442936 0.07586318
-0.054419488 0.08326567 0.074776106 -0.06565872 -0.057750188 0.05094992 0.002964079 -0.010207415
0.060457125 0.071164645 -0.006967235 -0.0059483377 -0.03427885 -0.0109206345 -0.0022154686 0.024960749
-0.02453078 -0.05776662 0.055548247 -0.07233646 -0.053782284 0.023200106 -0.046537824 -0.06425234
-0.03734151 0.11170755 -0.0015882257 0.0104970895 0.078055374 0.06360239 -0.057591025 0.0070201578
0.074165955 -0.07681227 0.024021674 -0.060080785 0.09619754 -0.06526151 -0.0057952898 0.030364852
0.041021917 0.080022894 -0.06655668 0.009948214 0.074121185 0.058272406 -0.053364884 -0.11618066
0.09055799 -0.044659793 -0.06403311 0.0781276 -0.0394133 -0.025737857 -0.08800968 -0.08436435
-0.044090904 0.029075371 -0.055135965 0.08120903 -0.11497981 -0.045016296 -0.107035965 -0.07352421
0.06009159 0.07093382 0.088625185 -0.002494551 -0.061065547 -0.0050758165 -0.028974714 0.049266644
-0.10564491 -0.09491824 0.041491225 0.0423659 -0.048346765 -0.104949415 -0.064935 0.03247454
-0.061818827 0.0040451875 -0.057719752 -0.049050648 0.02828441 0.078725874 0.047598697 0.04296324
-0.049904194 0.020915184 0.035849586 -0.050260264 0.016675368 0.0054704626 0.035049077 -0.07445364

encoder.model.weight_hh_l1 f4 [400, 100]
00000000: ca1d a23d 3de7 7bbb b11f 59bd 7918 8e3c
00000010: 1a8c d93d 553d 573c 3e89 e13d 06d7 8bbd
00000020: b7d1 953d 916e b93d 8985 00bc ab6e 2b3d
00000030: d8dc db3d 0fdf 04bd ddea a53d ca42 783d
00000040: b664 1f3d 2a06 813c 0bf2 a2bd f1cb d8bc
00000050: a33b 423d 8038 013d 9dcc b33d 8c82 eb3c
00000060: b4d6 b9bd 2b5e 64bd 7c72 073d 6c55 ae3b
00000070: 42b7 30bd ffc7 8a3a 0dad 92bd f909 49bb
00000080: 63ee b53d b0e1 c13d 4bcb 1c3d d38c 8c3d
00000090: 9467 d73d f081 003d f563 8abb acb6 8abd
000000a0: 9ac8 febc 2a5c 77bd 1fc0 aa3d 72ab 6d3d
000000b0: 783c bd3c d448 a43d 0d4b 853d 6273 a13d
000000c0: da7a 5abd e04b e63d 5e06 5bbc cf54 3c3d
000000d0: e0d6 bebd e6c5 a8bd bba6 84bd b110 c93c
000000e0: 1a64 90bd 8326 e33d d4b5 613c 4143 b93d
000000f0: 9e01 eb3d 1bcb 0f3d be1f a73d 9b56 e1bd
00000100: 4a25 2cbc 2937 99bd 4800 91bd 02a6 523d
00000110: 5848 d83c 4b72 abbd 101c aebd 2dc4 88bb
00000120: e650 96bd 8d65 533d 5722 2b3d bbff 5ebc
00000130: 3a17 0e3d c7c1 343b 9987 67bd 6b02 da3b
00000140: 13ab 3e3d 20f8 4fbd 3714 f83b 9e8a 74bc
00000150: 3f5d d53c 4462 b6bd 5f6c d7bd 32b1 90bc
00000160: c9a3 82bd 4866 95bd 95be db3c 31c3 9bbd
00000170: 44d2 46bd d9a3 b33d 9690 5cbd 33b6 5abb
00000180: 45f9 fd3b 5889 38bd 69bd 6c3d a755 963d
00000190: b09e d9bc 76ec 17bd a338 17bd e612 bbbd
000001a0: 3ad9 b33c 1d00 ddbb 8c65 afbc 2d76 8cbd
000001b0: d2be 883d 20ff 073d 3f28 61bd bd2b 213d
000001c0: 1c0b 243d 5cdd 203d 81f4 c8bd 3864 8dbd
000001d0: f37a 993d e2fa 5e3d afb9 9cbd 90a7 85bd
000001e0: 098c 9b3c d3dd c73c 1728 4a3d 1025 8abd
000001f0: 3a7c 29bd aa3f 773d dff0 e4bc 68b3 4a3d
00000200: 35c2 20bd f07b f7bd f9ab 383d 82bd c7bd
00000210: 6633 6f3d 6ce0 d33c bc61 babd 7643 3bbd
00000220: fc45 8bbc f489 083d 2525 0fbd 02db e13d
00000230: 23ba 50bd 0e44 6fbc 4455 9ebc 7542 f4bb
00000240: e2f7 bd3c dd4a 88bd 4769 83bc 5c8c 95bd
00000250: 42e5 f03c 4fad c93c ee22 f13c 77ef 9d3d
00000260: dc4a b6bd 9a48 273c 03b3 bcbc c7bc a83c
00000270: 8f2f f9bb 5333 233d 598e 22bd 55ba 163c
00000280: af7b acbb 91ec a1ba 1c8f 31bb 54e2 b8bc
00000290: 0f79 cbbc 7789 9a3b 18ef 8fbc 148e 48bc
000002a0: f320 043d 7516 d53d 1d05 edbb 2ef6 bf3c
000002b0: 6f24 b2bd 870c 0e3d dd52 0fbd 158d 09bd
000002c0: 26b5 5abb ee7c d23c b087 7a3d 9c10 8f3c
000002d0: 844a 0ebd 71e0 80bd 0c4b 3e3d e021 a1bd
000002e0: 7aff 3b3d ae7e 09bd 919f a6bd a838 61bd
000002f0: 63b6 083d 6068 87bd 6d2a aebc d914 9abd
00000300: fd2e e43c a818 2a3d e226 81bd d520 84bd
00000310: f940 063c f62e d23d 9338 06bb 15d1 7e3b
00000320: 85da afbd 06c2 0a3c 75fc 88bd 3f9e 42bd
00000330: 666d 70bc d88f 8c3d 639b 953d 5f80 d5bd
00000340: 1fb4 1dbd a6ab b1bd 2a4f d6bd f239 f4bc
00000350: 177d 1d3d 4535 913d 05e9 8d3d 377b b53b
00000360: b2db a03c b304 2d3d dab7 193d a8b9 adbd
00000370: 2aaf e1bd 57b8 80bd aea1 c23d e5df 34bd
00000380: ad6c a8bd b3b8 86bd a67a 79bd ea44 cabc
00000390: 7e93 eabc 1d45 a93d 8c14 cabd 2e5d 62bd
000003a0: 2a53 a4bd 454c 87bc 3612 e7bc ca96 49bd
000003b0: 6b1d 773d 96e9 22bd c1a7 9c3d 5e83 41bd
000003c0: 4cff 90bd 757f 933d 9be0 a73d 8474 183d
000003d0: b575 63bd e19d debd b45f fbbc 9d79 623d
000003e0: de72 5bbd 7369 c73d 63c1 b43d f51a f1bc
000003f0: fc40 1f3d 86aa 7c3d adde c93d 1769 c7bc
0.07915838 -0.003843739 -0.05300874 0.017345654 0.106224254 0.013137181 0.11012505 -0.06828122
0.073153906 0.09054292 -0.007844337 0.041853588 0.10735482 -0.032439288 0.08101437 0.06061057
0.038914405 0.01575001 -0.07956322 -0.026464434 0.047420155 0.031548023 0.08779261 0.028748773
-0.090741545 -0.055753868 0.033068165 0.0053202417 -0.04314352 0.0010588168 -0.07161913 -0.003067611
0.08883359 0.094668746 0.038279813 0.068627976 0.10517803 0.031373918 -0.0042233416 -0.06773123
-0.031101514 -0.06039063 0.083374254 0.05802483 0.023100123 0.08021703 0.065084554 0.07883336
-0.053339817 0.11244941 -0.013368217 0.045979317 -0.09318328 -0.08240871 -0.06477114 0.024544092
-0.07050343 0.1109133 0.013776261 0.09046031 0.11474918 0.035105806 0.08160351 -0.11002847
-0.010506937 -0.07481224 -0.07080132 0.05142785 0.026401684 -0.08371409 -0.08501446 -0.0041737766
-0.07339649 0.05161052 0.041780796 -0.013610776 0.03469012 0.002758132 -0.0565258 0.0066531203
0.046549868 -0.05077374 0.007570769 -0.014925627 0.02604544 -0.089054614 -0.10518717 -0.017662618
-0.06378896 -0.07294899 0.026824275 -0.07605589 -0.04854037 0.08771486 -0.053848825 -0.003337276
0.0077506625 -0.045052856 0.057797823 0.07340556 -0.026564926 -0.03709074 -0.036919247 -0.09134464
0.021954168 -0.0067443983 -0.021410726 -0.06858478 0.06677021 0.03320229 -0.054970022 0.039348353
0.040049657 0.039273605 -0.098122604 -0.06903881 0.07494154 0.05443848 -0.07652604 -0.06526101
0.018987672 0.024397766 0.04935464 -0.0674535 -0.041378237 0.06036345 -0.027946888 0.0494875
-0.03924771 -0.12084186 0.04508588 -0.097529426 0.058398627 0.025863849 -0.091006726 -0.045718633
-0.017001145 0.033334687 -0.034947533 0.110281006 -0.050958764 -0.014603628 -0.019327767 -0.0074542114
0.023189489 -0.06654904 -0.016041411 -0.07302162 0.029406194 0.024618773 0.029435601 0.0771169
-0.08900997 0.010210181 -0.023034578 0.020597829 -0.0076045464 0.03984387 -0.039686535 0.009199698
-0.0052637677 -0.0012353827 -0.0027093356 -0.02256886 -0.024837999 0.004716094 -0.017570063 -0.012240905
0.032257985 0.10404674 -0.0072332756 0.023432817 -0.086983554 0.034679916 -0.034991134 -0.033581812
-0.0033372133 0.025694337 0.061164558 0.017463975 -0.034739032 -0.06292809 0.04645829 -0.07867789
0.04589794 -0.033568077 -0.081359036 -0.054985672 0.033377063 -0.06611705 -0.021260465 -0.075235076
0.027854437 0.04152742 -0.063062444 -0.06451575 0.008194202 0.10262863 -0.0020480498 0.0038881947
-0.08586601 0.00846911 -0.06688777 -0.047514196 -0.01467452 0.068633735 0.07305028 -0.104248755
-0.038501855 -0.086753175 -0.10464318 -0.029812787 0.038449373 0.070902385 0.069292106 0.00553837
0.019636009 0.04224081 0.03752885 -0.08482677 -0.11019738 -0.0628516 0.09503494 -0.044158835
-0.08223853 -0.06578197 -0.060907982 -0.024691064 -0.028634783 0.082651354 -0.098672 -0.055264644
-0.08023675 -0.01651586 -0.028206926 -0.04921607 0.06033079 -0.039773546 0.07649184 -0.047244422
-0.07079944 0.07202045 0.08197137 0.037220493 -0.055532176 -0.10869957 -0.030685283 0.05529176
-0.053576343 0.0973691 0.08825948 -0.0294318 0.038880333 0.06168606 0.09856925 -0.024342103

encoder.model.bias_ih_l1 f4 [400]
00000000: e55a 87bd 3b04 a4bc 11da d43d 8c12 613b
00000010: 036a 7cbd b0ce a93d 60de 69bd 080f b2bd
00000020: 7800 db3d 4dd5 193d 122c 873b fd13 2dbc
00000030: 213c 423c 47f5 e43d 2830 863c 4fc2 43bd
00000040: 1bad e53d 889b 96bd da17 c33d 9784 a23d
00000050: e423 e33b bf6e 073d c89d 39bd 587c c83d
00000060: c76b a4bd 66e5 ec3a f946 28bd e82d ba3d
00000070: 2f6c 64bd f9d4 3fbd f7ee d63d c148 023d
00000080: 90d8 b33d 9316 d73d b24d 693c 64b3 8abd
00000090: fcb7 7d3d 09ee 8abd 8614 133d 2a20 923d
000000a0: fe84 5bba 1334 05bd 4509 463d a09a a4bd
000000b0: 1708 ac3d d571 ca3c dcba 1ebd 9ea2 903d
000000c0: f08c b63d 5e9c 00bd 6787 953d cbe4 b83c
000000d0: 6910 6e3d f2fd 073d 6d2e 73bd 3d7b 3abc
000000e0: e052 51bd 6c1f 953d 2d1f 1f3c 517a d73d
000000f0: 7d78 b93d 7ad6 a53d 96d4 b33b 082b 9dbd
00000100: 8a04 ccbc b745 2abd 739c e03c ed56 9e3d
00000110: e58d 763d 7695 5abc 3564 653c 453d 233c
00000120: ff88 893d ddc3 a43c 46b9 c33d 9ee1 3ebd
00000130: afbe 1bbd 31b1 503d 87b4 8d3d b4ce 37bc
00000140: a6bf 6d3c a14f 35bc e4bb 7e3d 406e dc3c
00000150: 1d85 53bd 29e0 42bd 4db7 1ebd 287d 98bd
00000160: 7fe5 913d 9861 8dbd 3448 c0bb b6db bfbb
00000170: 2804 8dbc d551 123d 91ec ee3d b924 6d3d
00000180: 5538 913d 7ee3 203d 443e a3bd 3776 f43b
00000190: 6fdb 7cbd 7ddd e83c 306b ef3d 98a6 a5bd
000001a0: df61 a93d fc74 92ba 45a0 97bc 373f 9a3d
000001b0: e679 bfbc b9be c83d ff05 5f3d 7d48 bb3d
000001c0: d6fd ae3d 085c 9d3d d1b1 84bd 44a0 53bd
000001d0: 7735 61bd ed08 0f3b d9de 203a fcc5 303d
000001e0: ecae a6bc 7d23 4c3d 6f57 d7bc bd91 04bd
000001f0: f589 983d df2e b53c 21cd bb3c 01ed 99bd
00000200: 287b 9f3d 64a3 23bd 06e4 ef3b 9556 9bbd
00000210: cc93 8d3d 075f 383d abd6 9fbd d8d5 51bd
00000220: b950 763d eef8 123c abd6 8a3c 220a 4a3d
00000230: 40d5 b4bb 7f40 d93d 42c2 a33d 8964 7b3d
00000240: c02a 16bc d5e8 14bd 6456 acbd 2960 52bd
00000250: 44a6 b53d 8232 a33d 124e 71bc 77b7 933d
00000260: 446a 84bd 6067 773d e65b bdbc fb64 5b3d
00000270: ea13 973c fd4d 0ebd 3da2 3dbd a335 1c3d
00000280: e8b0 8f3d 9f2e 303d 387c 883d d9a8 7fbc
00000290: ea7f 7dbd b11b 15bc 08fc 5bbd bf6f 63bb
000002a0: 59a6 5bbd 0ff7 47bd ba90 893d 3673 c83d
000002b0: 1660 673d 8bc3 783d 54b1 ba3d 24b6 a73d
000002c0: f72f 7dbd 7222 cd3d 4876 06bd bd89 fa3d
000002d0: b25f c63d 89ef 643d 3c67 52bd 734c ba3d
000002e0: 97e2 b8bb 84a8 9d3d 107f c33c fb25 61bd
000002f0: 240c b3bc 801a 41bb 75a8 573d 6109 823d
00000300: 4161 b3bc 0256 9b3d 3678 253c e0fe 543d
00000310: 88b3 56bd 06b1 693b d41b aa3d a48c 673d
00000320: 080c 08bd d682 a03d f7a7 7a3d 59d3 6f3c
00000330: 8297 433d 516a bdbd feba 88bd f06d 89bd
00000340: c60c 383d 31c0 90bd 9b67 a23c bc41 35bd
00000350: 1586 ab3d 2961 dc3d 82b5 b43d ebd3 e8bc
00000360: 47ec c13d 2c34 723d 1f1d 7fbd d859 5cbd
00000370: ec1e a1bd 31fd d8bd 8a34 803c f6b8 a1bd
00000380: de82 6d3d f358 a9bd 1a24 4ebc 9333 ea3c
00000390: f2cd c03d cfd6 92bd 849e 1ebc 0a2e 7cbd
000003a0: 3197 1ebd 785c cf3c 8323 b93d 55b3 5fbd
000003b0: 367a 8cbd ae90 54bd 6b27 85bb d8ec d23d
000003c0: 58c8 d0bd cd74 223d 35f0 cc3d 5dfd 3cbd
000003d0: 2902 6f3d 1fbf 9fbd 9fbb c9bd e577 86bc
000003e0: a93c 343d fb1a 093c a55e 2dbd aab1 3cbd
000003f0: 56ba cd3c a700 1dbd bc84 5f3d 8ac6 783d
-0.06609134 -0.020021548 0.10393155 0.003434333 -0.06162454 0.08291376 -0.05709684 -0.08694273
0.10693449 0.037556935 0.0041251266 -0.010563848 0.011855156 0.111795954 0.016380385 -0.04779273
0.11214658 -0.07353884 0.09526034 0.07935446 0.0069317687 0.0330646 -0.045316488 0.09789342
-0.080283694 0.0018073737 -0.04108331 0.09090787 -0.055767234 -0.046833966 0.10494798 0.031807665
0.087815404 0.105023526 0.014239715 -0.06772497 0.06194304 -0.06783683 0.035908245 0.07135041
-0.00083740044 -0.032520365 0.048348684 -0.08037305 0.083999805 0.024712482 -0.03875242 0.07062267
0.089136004 -0.031399123 0.073012166 0.022570034 0.05812112 0.033201165 -0.059370447 -0.011381921
-0.051104426 0.07281384 0.009712023 0.10521377 0.090561844 0.08097549 0.0054879887 -0.07674223
-0.024904508 -0.04157039 0.02741835 0.077314235 0.060193915 -0.013341298 0.014000942 0.009963338
0.06715583 0.020112926 0.095568225 -0.046601884 -0.038023647 0.050950233 0.069191985 -0.011218715
0.014511025 -0.011066348 0.062190905 0.02690804 -0.05164062 -0.047577057 -0.038749028 -0.07445747
0.07123851 -0.0690338 -0.0058679823 -0.005855049 -0.017213896 0.035722572 0.11666215 0.05789635
0.070908226 0.039279453 -0.079708606 0.0074603814 -0.061732706 0.028425926 0.11690366 -0.08088416
0.082706206 -0.001117378 -0.01850904 0.075315885 -0.023373555 0.098020025 0.054449078 0.091446854
0.08544509 0.07683569 -0.06479228 -0.051666513 -0.05498263 0.0021825389 0.00061367225 0.043157563
-0.020347081 0.04983853 -0.026286809 -0.03236555 0.07448188 0.022117076 0.022924962 -0.07515908
0.07787162 -0.039950743 0.0073208837 -0.075848736 0.06912956 0.0450125 -0.078046165 -0.051229328
0.060135577 0.008970482 0.016948065 0.04932607 -0.0055185854 0.10608005 0.07996036 0.061375175
-0.009165466 -0.03635486 -0.08414915 -0.051361237 0.08869603 0.07968618 -0.014728086 0.072127275
-0.06465581 0.06040132 -0.02311511 0.0535631 0.018442113 -0.034742344 -0.0462973 0.03813709
0.07016164 0.04301321 0.06664318 -0.015604221 -0.061889566 -0.00910084 -0.053707153 -0.0034704057
-0.05362544 -0.048819598 0.067170575 0.097876 0.05648812 0.06073336 0.09115854 0.081890374
-0.06181332 0.100163355 -0.032827646 0.12233303 0.09686221 0.0558925 -0.051367983 0.09096613
-0.005642246 0.076981574 0.023864299 -0.05496786 -0.021856375 -0.0029465258 0.052650888 0.06349445
-0.02189696 0.07584764 0.010099461 0.05200088 -0.052417308 0.0035658493 0.08306089 0.05653061
-0.0332146 0.07837455 0.06119534 0.014637792 0.04775191 -0.09248794 -0.06676291 -0.06710422
0.044934057 -0.070679076 0.019824794 -0.044252142 0.083751835 0.10760719 0.08823682 -0.028421363
0.094688945 0.059131786 -0.06228363 -0.05379662 -0.07867226 -0.105951674 0.015650053 -0.078966066
0.057986133 -0.08268919 -0.0125818495 0.028589046 0.09414281 -0.07169878 -0.009681348 -0.061567344
-0.038718406 0.025312647 0.090399764 -0.054614384 -0.068592474 -0.05189579 -0.004063537 0.102990806
-0.101944625 0.03966217 0.10006753 -0.046140064 0.05835167 -0.07800125 -0.09850239 -0.016414592
0.044003163 0.008368249 -0.04232659 -0.04606787 0.025113266 -0.0383307 0.054569945 0.060736217
