notebooks/vrae.pth (torch, 996767 bytes, 23 tensors)

encoder.model.weight_ih_l0 f4 [400, 1]
0	0x3ea84c48	0.32870698
1	0x3dfd57df	0.12370276
2	0xbf3cd3ee	-0.7376088
3	0x3cab8205	0.020936022
4	0xbec70de3	-0.38877782
5	0x3efdc67a	0.49565488
6	0xbe2c59f7	-0.16831194
7	0xbe6dca19	-0.23221625
8	0xbf50f526	-0.81624067
9	0xbec53e39	-0.38524035
10	0xbee9fff0	-0.45703077
11	0xbd90217e	-0.07037638
12	0xbead4eb2	-0.33849102
13	0xbd6f83b4	-0.05847521
14	0xbde69b18	-0.112600505
15	0xbdeb7ffc	-0.114990205
16	0xbf179fc6	-0.5922817
17	0xbe4ab2cc	-0.19794768
18	0xbdc4fec5	-0.09618906
19	0xbec910f8	-0.3927076
20	0x3ea4dbbd	0.32198897
21	0x3e53cbfd	0.20683284
22	0xbf0a592a	-0.54042304
23	0xbee14ba7	-0.4400303
24	0xbd85b468	-0.065285504
25	0x3f057aff	0.521408
26	0xbf1b0449	-0.60553414
27	0xbe4ee6c0	-0.20205212
28	0x3e330ad5	0.17484601
29	0x3e3bdd3c	0.18346113
30	0x3cacdf93	0.021102702
31	0x3e2ea110	0.17053628
32	0xbeed3bdf	-0.4633474
33	0xbecc3577	-0.3988454
34	0x3e1c5132	0.15265349
35	0xbf406725	-0.75157386
36	0xbf006768	-0.50157785
37	0xbf0c172e	-0.5472287
38	0xbc57e386	-0.013176804
39	0xbf3eebb7	-0.7457842
40	0xbf0b58ee	-0.5443257
41	0xbf3e4ad7	-0.74332947
42	0xbe8d5657	-0.27604935
43	0x3f2e7bc6	0.68157613
44	0xbf03fb61	-0.5155545
45	0xbf0173a0	-0.50567055
46	0xbecafd7c	-0.39646518
47	0xbf2abf9b	-0.66698617
48	0xbefe8cad	-0.49716702
49	0xbedcb51b	-0.43106923
50	0x3d5ec72f	0.054389175
51	0xbda51524	-0.08060673
52	0xbe4bd5c0	-0.19905758
53	0xbf0a8059	-0.54102093
54	0x3d3826a1	0.044958714
55	0xbed69878	-0.419132
56	0xbed387d4	-0.41314566
57	0xbf768213	-0.9629223
58	0x3ee078a2	0.43842036
59	0x3bfe749a	0.007765365
60	0xbee7ca7a	-0.45271665
61	0xbeaf148e	-0.3419537
62	0xbeb93df4	-0.3618008
63	0x3ef97264	0.48720086
64	0xbea47449	-0.3211997
65	0x3ebcf05e	0.36902136
66	0xbf023585	-0.50862914
67	0xbded442d	-0.11585269
68	0xbe8aec4c	-0.27133405
69	0xbe807cd7	-0.25095245
70	0xbe391a89	-0.18076529
71	0xbdbd4740	-0.092421055
72	0xbec308bd	-0.38092604
73	0x3f14f177	0.58180946
74	0xbeb54c6b	-0.35409865
75	0xbe066122	-0.1312299
76	0xbe0e64f6	-0.13905701
77	0x3e5b52e4	0.21418339
78	0xbf0363ce	-0.51324165
79	0xbe83225a	-0.25612146
80	0x3f04b700	0.51841736
81	0xbefcfd7c	-0.49412143
82	0xbdb608ad	-0.088883735
83	0xbe957ac6	-0.2919523
84	0x3d90247d	0.070382096
85	0xbf30a8f1	-0.69007784
86	0xbe299f64	-0.16564709
87	0x3d0d56db	0.03450666
88	0xbe27ebf9	-0.1639861
89	0xbdfeb86a	-0.12437518
90	0xbf2b23cf	-0.66851515
91	0xbe2c104f	-0.16803096
92	0xbf1acfd1	-0.6047335
93	0xbe9245dc	-0.28568923
94	0xbe4b7fac	-0.19872922
95	0xbeeee152	-0.4665628
96	0xbe3d760f	-0.18502067
97	0x3dba8bfb	0.091087304
98	0xbe914426	-0.28372306
99	0xbecd02f1	-0.40041307
100	0x3ee7ff07	0.45311758
101	0x3e3d0014	0.18457061
102	0xbf3ab5ba	-0.7293354
103	0x3e07b17a	0.13251296
104	0xbe85b316	-0.26113194
105	0x3f1f9dbb	0.6235005
106	0xbdd526f9	-0.10407824
107	0xbdcd696d	-0.10029874
108	0xbf6ef1ee	-0.93337905
109	0xbd14c981	-0.03632498
110	0xbd843d6d	-0.064570285
111	0x3dfd5cce	0.12371217
112	0xbdd63933	-0.10460129
113	0x3d1bd60e	0.038045935
114	0x3eea19d5	0.45722833
115	0x3e832e82	0.2562142
116	0xbeb41437	-0.35171673
117	0xbdd5df12	-0.10442938
118	0x3d98362a	0.07432206
119	0xbd4a1376	-0.049334966
120	0x3ef093dc	0.46987808
121	0x3efe67dd	0.49688616
122	0xbefae3aa	-0.4900182
123	0xbe942000	-0.28930664
124	0xbd555ee8	-0.052092463
125	0x3f34c9bc	0.7062032
126	0xbf0415c6	-0.51595724
127	0xbdf32a18	-0.11873263
128	0x3f199f23	0.6000845
129	0x3e0f1553	0.13972978
130	0xbdcb3e20	-0.09923959
131	0x3f015ca4	0.50531983
132	0xbd0aab75	-0.03385492
133	0xbe6673bf	-0.22505091
134	0x3f088358	0.53325415
135	0xbf22e999	-0.6363769
136	0xbe869f0d	-0.2629322
137	0xbeb03323	-0.34414014
138	0x3e176c91	0.14787509
139	0xbf440e51	-0.76584345
140	0xbe5db64c	-0.21651572
141	0xbf53083e	-0.8243445
142	0x3cf3fe21	0.029784264
143	0x3f7963d9	0.9741798
144	0xbecb0604	-0.39653027
145	0xbe1ebfa6	-0.15502796
146	0xbdbb386a	-0.091416195
147	0xbf3234e8	-0.6961198
148	0xbe1cd3e1	-0.153152
149	0xbe34fc71	-0.17674424
150	0x3ee6898f	0.45026824
151	0x3dd6b6b6	0.10484068
152	0xbb59c99f	-0.0033231748
153	0xbee2007d	-0.44140998
154	0x3bee6d5a	0.0072762193
155	0xbd4ae582	-0.049535282
156	0xbe415728	-0.18880904
157	0xbf7e1e69	-0.9926515
158	0x3f0c0d17	0.54707474
159	0x3e83a31a	0.25710374
160	0xbd8f632c	-0.070013374
161	0xbe48964f	-0.19588588
162	0xbe5e334d	-0.21699257
163	0x3f1b9e59	0.60788494
164	0xbe5b67e2	-0.21426347
165	0x3ef2cf7e	0.4742393
166	0xbf42256f	-0.7583837
167	0xbd873928	-0.066026986
168	0xbe0ff7c2	-0.14059356
169	0xbd259cd5	-0.04043277
170	0x3d37fafc	0.04491709
171	0x3e816bf9	0.2527769
172	0x3e16b796	0.1471847
173	0x3f1d2734	0.61387944
174	0x3d89fe65	0.06737975
175	0x3e0bbc64	0.13646084
176	0x3eb8dd74	0.36106455
177	0x3ea9222c	0.33033884
178	0xbe562b20	-0.20914888
179	0xbdbd0a37	-0.09230464
180	0x3f2cf4b5	0.67560893
181	0xbf16f800	-0.5897217
182	0x3e440c04	0.19145209
183	0xbeae0fbb	-0.33996376
184	0x3e434526	0.19069347
185	0xbf13b815	-0.5770276
186	0x3dff6787	0.12470918
187	0x3e845b3a	0.2585085
188	0xbd4f394d	-0.050591756
189	0x3e3b6f15	0.18304093
190	0xbf262938	-0.64906645
191	0x3e2dfb79	0.1699046
192	0xbf27cce6	-0.65547025
193	0x3d8f040f	0.06983196
194	0x3bce6bc1	0.0062994664
195	0xbe65222d	-0.22376318
196	0x3dc79e2b	0.09746965
197	0x3e84144f	0.25796744
198	0xbc81980a	-0.015819568
199	0xbda9e2a0	-0.082951784
200	0xbf0ad974	-0.5423806
201	0x3effc365	0.49953762
202	0x3edfc879	0.43707636
203	0x3d9b43a7	0.07581263
204	0xbedbfc98	-0.4296615
205	0x3ed352ec	0.41274202
206	0x3ea07f4b	0.31347117
207	0x3ea68a88	0.32527566
208	0xbeaeb7cb	-0.34124598
209	0xbe1e01bb	-0.15430348
210	0x3e1166ce	0.14199373
211	0x3d24340a	0.04008869
212	0xbe63c0e4	-0.2224155
213	0xbed95673	-0.42448768
214	0x3e1d6b49	0.15372957
215	0xbe0e5571	-0.13899781
216	0xbe554278	-0.20826137
217	0xbee18c62	-0.44052416
218	0xbec555cc	-0.3854202
219	0x3e1c0c98	0.15239179
220	0x3e2a3574	0.16621953
221	0x3cc70d4b	0.02429833
222	0x3ede1ca6	0.43381232
223	0xbdf00c38	-0.117210805
224	0xbe9c23b7	-0.30495998
225	0x3e9358a2	0.2877856
226	0xbe552f22	-0.20818761
227	0x3e0f8c8a	0.14018455
228	0xbe5ae3e4	-0.21375996
229	0x3e0473af	0.12934755
230	0x3e962772	0.2932697
231	0xbe00e35c	-0.1258673
232	0xbe813d88	-0.25242257
233	0xbebba69e	-0.36650556
234	0x3e6d46e0	0.23171568
235	0x3ec5788c	0.38568532
236	0x3e2a735a	0.16645566
237	0x3d6086b6	0.05481597
238	0x3e63d451	0.22248961
239	0xbee960d6	-0.45581692
240	0x3dbe9549	0.09305818
241	0x3ee9ed41	0.45688823
242	0x3e46b448	0.1940471
243	0x3e97570c	0.295586
244	0xbeaa9bb8	-0.3332193
245	0xbde697fe	-0.11259459
246	0x3bc2a514	0.005940089
247	0xbef005b3	-0.46879348
248	0x3df0b54c	0.1175333
249	0xbdba7f47	-0.091063075
250	0xbd1ccfdf	-0.03828418
251	0xbec2818b	-0.37989458
252	0xbcbbc039	-0.022918807
253	0x3ebd7e75	0.37010542
254	0xbe946c3c	-0.28988826
255	0x3e897d74	0.26853526

encoder.model.weight_hh_l0 f4 [400, 100]
0	0xbe20b4ad	-0.15693922
1	0x3dfd4256	0.12366168
2	0xbe065f0b	-0.13122194
3	0xbdd5adcf	-0.10433542
4	0xbd545b7e	-0.051845066
5	0x3e163fc3	0.1467276
6	0x3e0df27c	0.13862032
7	0x3a871faa	0.0010309119
8	0x3d52e4aa	0.051487602
9	0xbe34bd55	-0.1765035
10	0x3bdbd06d	0.006708196
11	0xbd8d5f5c	-0.06902954
12	0xbe198a51	-0.1499417
13	0xbd070150	-0.032960236
14	0x3b6b0815	0.0035862972
15	0xbdc8e5c4	-0.09809449
16	0xbd284bd2	-0.041087933
17	0xbcc053cd	-0.02347746
18	0xbd27122e	-0.040788822
19	0x3e300339	0.1718873
20	0x3d1dd8f1	0.03853697
21	0x3d92d742	0.071699634
22	0xbd46c255	-0.048525173
23	0x3e0e36f7	0.13888155
24	0xbc6e5d38	-0.014548592
25	0xbe04f1e4	-0.12982899
26	0xbd1d49ea	-0.038400568
27	0xbe072a55	-0.13199742
28	0xbd3faaeb	-0.04679386
29	0x3d27bca7	0.040951397
30	0xbcd3acf5	-0.025839308
31	0xbd513d5b	-0.051083904
32	0x3d1e1e26	0.03860297
33	0x3d915469	0.07096178
34	0xbdf07097	-0.11740225
35	0xbbb26e68	-0.0054452904
36	0x3d39143a	0.045185305
37	0x3e1fc518	0.15602529
38	0x3cf8b602	0.030360226
39	0x3dedb23a	0.1160626
40	0x3dda5913	0.10661521
41	0xbc99d538	-0.018778428
42	0x3d168c48	0.036754876
43	0x3e17e0e7	0.14831887
44	0x3d32327e	0.043505184
45	0xbdbe3113	-0.09286704
46	0x3e4644d4	0.19362193
47	0x3d8023ba	0.06256814
48	0xbd93f92b	-0.072252594
49	0xbdf51796	-0.11967389
50	0xbe567255	-0.20942052
51	0xbd10f757	-0.03539213
52	0x3c2d3e09	0.010573872
53	0xbdeeea2e	-0.1166576
54	0x3db3c8c1	0.08778525
55	0x3d3a987c	0.045555577
56	0x3e11275d	0.14175172
57	0xbddd3cd5	-0.108026184
58	0xbc991033	-0.018684482
59	0x3cd14927	0.025547577
60	0xbd63cb91	-0.055614058
61	0xbc5ef922	-0.013609203
62	0x3da2a608	0.07941824
63	0x3db66099	0.08905143
64	0x3c18f8e8	0.009336688
65	0x3d8af60a	0.067852095
66	0xbd0dc672	-0.03461308
67	0x3c0cdd5c	0.008597698
68	0x3cde5c80	0.027143717
69	0x3b55c4fa	0.0032618628
70	0x3d812480	0.0630579
71	0x3d9b10ea	0.075715855
72	0xbe560941	-0.20901968
73	0x3d06ed5e	0.032941215
74	0x3cc8da54	0.02451817
75	0x3e24b9ba	0.16086474
76	0x3d396b1d	0.045268167
77	0x3dcdd8b4	0.100510985
78	0xbd9eb0b6	-0.07748549
79	0x3b9ce645	0.0047881925
80	0x3e2b5aa6	0.16733798
81	0xbd8e447e	-0.069466576
82	0x3e1bd167	0.152166
83	0xbd3de411	-0.04636008
84	0x3d5976ea	0.05309192
85	0x3c14be61	0.009078593
86	0x3e034f79	0.12823285
87	0x3e1fd2e3	0.1560779
88	0x3d2dc62e	0.042425327
89	0xbdc1dc35	-0.09465829
90	0x3dcd364c	0.10020122
91	0x3e01beeb	0.12670486
92	0x3bc5eb0e	0.0060399836
93	0xbe825a49	-0.25459507
94	0xbccb14e0	-0.024790227
95	0x3e05fbae	0.1308429
96	0x3d523732	0.05132217
97	0xbd92473c	-0.07142493
98	0x3dfc6636	0.12324183
99	0xbd747b4b	-0.059687894
100	0x3dade30c	0.084905714
101	0x3e1f2acf	0.15543674
102	0xbe0ecd7f	-0.13945578
103	0x3cde9efc	0.027175419
104	0x3e5f3c72	0.21800402
105	0xbd6ec6ad	-0.05829494
106	0x3d94cbe9	0.07265455
107	0xbd25440a	-0.04034809
108	0x3d03e849	0.032203946
109	0xbe325ef5	-0.17419036
110	0xbcc0391d	-0.023464734
111	0x3cc39c5c	0.023878269
112	0xbc4b4f34	-0.01240902
113	0x3e86c9e3	0.26325902
114	0x3ec31f9a	0.38110048
115	0xbdd4f78b	-0.103987776
116	0x3b7ea574	0.0038855942
117	0x3e288f93	0.16461019
118	0x3d8ef5ae	0.069804534
119	0x3d4bc626	0.049749516
120	0xbd96ac5b	-0.07357093
121	0xbe18a040	-0.1490488
122	0xbde7fbce	-0.11327325
123	0xbdf6fd33	-0.12060013
124	0xbd9e115a	-0.07718153
125	0x3d598a68	0.05311051
126	0xbe2615e7	-0.16219293
127	0x3e6b225d	0.22962327
128	0x3d3c4155	0.045960743
129	0x3df883dc	0.12134525
130	0x3d70f9c1	0.058831934
131	0x3e2d3404	0.16914374
132	0xbd4b0992	-0.049569674
133	0x3d363c5c	0.044491157
134	0x3b70114d	0.0036631406
135	0xbe0804ea	-0.13283125
136	0x3dd65d6e	0.10467039
137	0x3da3ad1c	0.07992002
138	0x3ea06347	0.31325743
139	0x3e7e4511	0.24831034
140	0x3d5edad7	0.05440792
141	0xbe718caa	-0.23588815
142	0x3e4ba310	0.19886422
143	0xbd7cc84f	-0.061714467
144	0x3e495af8	0.19663608
145	0xbe189e09	-0.14904036
146	0xbd210d9d	-0.039319623
147	0x3e2d3178	0.16913402
148	0x3decc24d	0.115604974
149	0xbe1627d0	-0.14663625
150	0x3e5b12e3	0.21393923
151	0x3d592eb5	0.05302306
152	0x3ebcff62	0.36913592
153	0xbe010002	-0.12597659
154	0x3e09f8ff	0.1347389
155	0x3e740543	0.23830132
156	0x3edbf289	0.42958477
157	0xbe7747d4	-0.24148494
158	0x3e806b82	0.25082022
159	0xbbc427a8	-0.0059861727
160	0xbe59d234	-0.21271592
161	0x3e6b8964	0.23001629
162	0x3d636d03	0.055523884
163	0xbccb6117	-0.02482657
164	0x3e128203	0.14307408
165	0xbdc6b71f	-0.09702896
166	0x3e369034	0.17828447
167	0x3df00db9	0.117213674
168	0xbc7718ab	-0.015081565
169	0xbb208d2f	-0.0024498214
170	0xbe1d2549	-0.15346254
171	0x3e4a756a	0.19771352
172	0x3dab2f9c	0.0835869
173	0xbd9571b5	-0.072970785
174	0xbd1b1082	-0.03785754
175	0xbc91985c	-0.017772846
176	0xbe5a77b2	-0.21334723
177	0x3d8eef31	0.06979216
178	0x3daaec6a	0.08345874
179	0x3d6d9ea8	0.058012635
180	0xbcdf5e91	-0.027266772
181	0xbd4bdb95	-0.049769957
182	0xbd47332f	-0.048632797
183	0x3e5f4b61	0.21806099
184	0x3ecedec6	0.40404338
185	0x3e2b1074	0.16705495
186	0x3dae6a8b	0.08516415
187	0xbde335e7	-0.110942654
188	0x3e64f78c	0.22360057
189	0xbde8ed33	-0.11373367
190	0x3e740ad9	0.23832263
191	0xbdfd6722	-0.12373187
192	0x3d578660	0.052618384
193	0xbd67b986	-0.056573413
194	0x3dcdc203	0.100467704
195	0xbe1b9420	-0.15193224
196	0x3d437851	0.047722165
197	0xbce8ce2b	-0.028418621
198	0xbe3743d0	-0.17896962
199	0x3da0694a	0.07832582
200	0x3e5e5e41	0.21715643
201	0x3d1f69f0	0.03891939
202	0x3d8b8915	0.06813256
203	0xbc9b1ec4	-0.018935569
204	0x3ce0242b	0.027360996
205	0xbd0b70ab	-0.034042995
206	0x3e34808b	0.1762716
207	0xbd560742	-0.052253015
208	0x3cbcb8a8	0.02303727
209	0xbb7ccc90	-0.0038574077
210	0x3e3bd75a	0.18343869
211	0xbcbb77a6	-0.022884201
212	0xbd9d3fcc	-0.07678184
213	0x3dfad3d9	0.12247438
214	0x3d31a9e5	0.043374915
215	0xbde4af32	-0.11166228
216	0xbc9b5bcd	-0.018964672
217	0x3cc7ee71	0.02440569
218	0x3d1cd718	0.038291067
219	0x3dbf851c	0.093515605
220	0x3b0ce0ec	0.0021496369
221	0xbdcf06ed	-0.10108743
222	0x3d0023b7	0.03128406
223	0xbcb0c778	-0.02157949
224	0xbd209de1	-0.039213065
225	0xbdbae574	-0.09125796
226	0xbd3a42f9	-0.045474026
227	0xbd30c592	-0.043157168
228	0xbcfbd44d	-0.030740881
229	0xbe510f98	-0.20416105
230	0x3d3e5b2d	0.04647367
231	0x3bad2d9e	0.005284979
232	0x3db237d8	0.087020576
233	0xbe124f45	-0.14288051
234	0x3b8269c4	0.0039798934
235	0x3db4b00e	0.08822642
236	0x3e5d26e5	0.21596868
237	0x3e1c1d97	0.15245663
238	0x3e1ea8ee	0.15494129
239	0x3e01c807	0.1267396
240	0x3d4cb14a	0.049973764
241	0xbb33383c	-0.002734675
242	0x3e1bd96d	0.1521966
243	0xbccbd51c	-0.024881892
244	0xbd9ca360	-0.07648349
245	0xbd151e83	-0.03640605
246	0x3e92e35e	0.28689092
247	0x3c8ad6ba	0.016948093
248	0x3e546987	0.2074338
249	0xbdf82d87	-0.12118059
250	0xbccc710e	-0.024956252
251	0x3d63459e	0.055486314
252	0x3e646c81	0.22307016
253	0x3e16599b	0.1468262
254	0xbd2887fd	-0.041145314
255	0xbcc1e4f8	-0.023668751

encoder.model.bias_ih_l0 f4 [400]
0	0xbe49cc2b	-0.1970679
1	0x3ded8522	0.11597659
2	0xbde2f7b4	-0.11082402
3	0xbe7b6b4a	-0.24552646
4	0xbc310c82	-0.010806205
5	0xbe668e83	-0.22515301
6	0xbd6db5bd	-0.058034647
7	0xbd7e30bf	-0.062058207
8	0xbe0e3e18	-0.13890874
9	0xbe75984f	-0.23983882
10	0xbe60e88e	-0.21963713
11	0xbeb2e351	-0.34939054
12	0xbe3bddda	-0.18346348
13	0x3d0a864c	0.03381948
14	0xbefcb551	-0.49357083
15	0xbe24dd4a	-0.1610004
16	0xbe936734	-0.28789675
17	0xbde17e49	-0.11010415
18	0xbe69262b	-0.22768466
19	0xbe61976a	-0.22030416
20	0xbea1ee73	-0.31627235
21	0xbcb8b9e6	-0.02254958
22	0xbd437e43	-0.047727834
23	0xbe73def7	-0.23815523
24	0xbdd88c3d	-0.10573623
25	0xbe58c859	-0.21170177
26	0xbea44f9c	-0.32091987
27	0xbeda1d29	-0.42600372
28	0xbebae5e0	-0.36503506
29	0xbebc1f7e	-0.36742777
30	0xbe7444e8	-0.2385441
31	0xbdfa89d8	-0.12233323
32	0xbeb0c3a6	-0.34524268
33	0xbe866108	-0.26245904
34	0xbeb630f9	-0.35584238
35	0xbe390a48	-0.18070328
36	0xbe423547	-0.18965636
37	0xbf135dd9	-0.57565075
38	0xbe83e680	-0.25761795
39	0x3caebace	0.02132931
40	0xbe94e090	-0.29077578
41	0x3d846359	0.064642616
42	0xbe6d13fc	-0.23152155
43	0xbddd7c41	-0.10814715
44	0xbd91e07c	-0.07122895
45	0xbe485b02	-0.19565967
46	0xbedc7772	-0.4305988
47	0xbdb9ca98	-0.09071845
48	0xbe5ebfff	-0.21752928
49	0xbef18a5d	-0.47175875
50	0xbe7acab5	-0.24491389
51	0xbe24275b	-0.16030638
52	0xbeae0875	-0.33990827
53	0xbe15cb38	-0.14628303
54	0xbeb6d149	-0.35706547
55	0xbed93176	-0.42420548
56	0xbea19929	-0.31562164
57	0xbd743a91	-0.059626166
58	0xbe6c09a1	-0.23050548
59	0xbeaa2735	-0.33233038
60	0xbea89bd3	-0.32931384
61	0xbe9ff654	-0.3124262
62	0xbe9a88fb	-0.30182633
63	0xbe72f479	-0.23726071
64	0xbe049176	-0.12946114
65	0xbe4c76dd	-0.19967218
66	0xbe551cf8	-0.20811832
67	0xbe8a4993	-0.27009258
68	0xbeaba696	-0.33525532
69	0xbe443f53	-0.19164781
70	0xbec467fa	-0.38360578
71	0xbdd0c43f	-0.10193681
72	0xbe744185	-0.23853119
73	0xbe23fc3d	-0.1601419
74	0xbde591fc	-0.11209485
75	0xbe751464	-0.2393356
76	0xbeca03a3	-0.394559
77	0x3e3c100b	0.18365495
78	0xbddf710c	-0.10910234
79	0xbe9c5a9e	-0.30537885
80	0xbe6ad025	-0.22930963
81	0xbcba4b1b	-0.022740891
82	0xbedca39c	-0.43093574
83	0xbdfe1a87	-0.124074034
84	0xbd423311	-0.047411982
85	0xbd99969f	-0.07499432
86	0xbeabcee5	-0.33556286
87	0x3db6eaa1	0.08931471
88	0xbe93fb83	-0.28902826
89	0xbe14191d	-0.14462705
90	0xbcf7d5f0	-0.03025338
91	0xbd1e7935	-0.03868981
92	0x3d7b2567	0.061314967
93	0x3d24f902	0.040276535
94	0xbebea8cb	-0.37238154
95	0xbecf4662	-0.40483385
96	0xbeaf5b76	-0.34249467
97	0xbe5c94e5	-0.21541174
98	0xbea73731	-0.32659295
99	0xbea5208d	-0.32251397
100	0x3df8b71c	0.121443
101	0x3dad296b	0.084551655
102	0x3cc972c0	0.02459085
103	0xbd95138a	-0.072791174
104	0x3c81550a	0.01578762
105	0x3d48be53	0.049009632
106	0x3d8e8f7d	0.06960962
107	0xbd76e269	-0.060274515
108	0xbda59a54	-0.080860764
109	0xbe174f9e	-0.14776465
110	0xbcf0e8bf	-0.029407857
111	0xbe22492e	-0.15848228
112	0x3e169e7d	0.14708896
113	0x3ea572c8	0.32314134
114	0x3e10617e	0.1409969
115	0x3e01580b	0.12631242
116	0xbde86883	-0.11348059
117	0x3cd8baee	0.026456323
118	0xbe230ed2	-0.15923622
119	0x3c11d34d	0.008900476
120	0x3d3c8812	0.046028204
121	0x3eca5022	0.3951426
122	0xbd23440b	-0.039859813
123	0xbd8eca34	-0.06972161
124	0xbd56ec2d	-0.05247133
125	0x3d6d2c35	0.057903487
126	0xbe5c8bff	-0.2153778
127	0xbdaf0fe7	-0.08547955
128	0xbdb3b529	-0.08774788
129	0xbe303ae3	-0.17209964
130	0xbe2e4f07	-0.17022334
131	0x3e838014	0.25683653
132	0xbe78c865	-0.24295194
133	0xbd8f2585	-0.06989578
134	0x3da1d322	0.079015985
135	0xbdb42558	-0.08796185
136	0xbe11b81b	-0.14230387
137	0xbea50ffd	-0.3223876
138	0xbd8780c9	-0.06616361
139	0x3e25e0aa	0.16198984
140	0xbe78f893	-0.24313574
141	0x3d84c479	0.06482787
142	0xbbb585f6	-0.005539651
143	0xbd1488e9	-0.03626338
144	0xbd3e6578	-0.046483487
145	0xbbfdd883	-0.0077467575
146	0xbe12375e	-0.14278933
147	0x3dc75b9f	0.09734272
148	0xbe12577a	-0.14291182
149	0xbe5ff861	-0.21872093
150	0x3ea17af9	0.31539133
151	0x3e414ec4	0.18877703
152	0xbe2baf9f	-0.16766213
153	0x3cac5419	0.021036195
154	0xbe78dd81	-0.24303247
155	0x3dbdd0c1	0.09268332
156	0xbe000c23	-0.1250463
157	0xbd02ea5b	-0.03196178
158	0xbdf4a04c	-0.11944637
159	0x3d5534b9	0.052052233
160	0xbe277131	-0.16351773
161	0xbdee911a	-0.1164877
162	0xbe9b73b3	-0.3036171
163	0x3d4738d1	0.04863817
164	0xbc2f495f	-0.010698645
165	0xbe0c90dd	-0.13727136
166	0xbdcfccb1	-0.10146464
167	0xbd741e03	-0.059598934
168	0x3c847751	0.016170176
169	0xbd27c1f4	-0.040956452
170	0xbdf86fc1	-0.1213069
171	0x3e33884c	0.17532462
172	0x3e1a6f45	0.15081508
173	0xbd80ecfe	-0.06295203
174	0x3d28a0e0	0.041169047
175	0xbdff8915	-0.12477318
176	0x3d57b0b5	0.052658755
177	0x3e8a4ea6	0.2701313
178	0xbd5dfb5a	-0.054194786
179	0xbe44e36e	-0.19227383
180	0xbdc47862	-0.09593274
181	0x3bd5321c	0.0065062176
182	0xbd5f5ad7	-0.05452999
183	0xbda71de5	-0.08159999
184	0x3df2d191	0.11856378
185	0x3d590e44	0.05299212
186	0xbd067afb	-0.032832127
187	0x3e175c26	0.14781246
188	0xbe170078	-0.14746273
189	0x3ca53776	0.020168047
190	0x3d5b1872	0.05349011
191	0x3dd61513	0.10453238
192	0x3d63d2e6	0.05562105
193	0x3e4e6ff1	0.2015989
194	0xbd2c0586	-0.041997455
195	0xbeba1b99	-0.3634918
196	0x3dc679bd	0.096911885
197	0x3e166cb4	0.14689904
198	0xbda07742	-0.078352466
199	0x3c2c2389	0.010506519
200	0x3db852af	0.09000146
201	0xbd607c5f	-0.05480611
202	0xbdf08021	-0.11743189
203	0xbd84416c	-0.06457791
204	0x3cbbdd86	0.022932779
205	0xbe2bd1ee	-0.167793
206	0xbadfa4da	-0.0017062679
207	0xbdab6986	-0.083697364
208	0x3d97eb54	0.07417932
209	0x3c09fca7	0.008422053
210	0xbdd97d6f	-0.10619628
211	0xbd8cf3cd	-0.06882439
212	0x3df2acd3	0.1184937
213	0x3e318889	0.1733724
214	0x3d14caa2	0.03632606
215	0xbaf9261a	-0.0019008548
216	0x3bdbb58b	0.006704991
217	0x3cd8fbac	0.026487194
218	0x3d8ef7f6	0.069808885
219	0xbc8b3be8	-0.016996339
220	0xbdb4a5d1	-0.088206895
221	0xbd2e2a92	-0.042521067
222	0xbd09827f	-0.033571716
223	0x3c28784d	0.010282588
224	0x3e3df80f	0.18551658
225	0xbdd477bb	-0.10374399
226	0xbc9a5fb3	-0.018844461
227	0xbcefc6e7	-0.029269649
228	0x3e0d273c	0.13784498
229	0xba4d067c	-0.00078210956
230	0xbd697e07	-0.057004955
231	0x3e06090c	0.13089389
232	0x3cbe128a	0.0232022
233	0x3dcff1a3	0.101535104
234	0xbe167235	-0.14692004
235	0xbd4861fb	-0.048921566
236	0xbc8f6715	-0.017505208
237	0xbda8e2c1	-0.08246375
238	0x3c60c6b4	0.0137192495
239	0x3e416cbd	0.18889137
240	0xbdccb62e	-0.099956855
241	0xbe27f522	-0.16402104
242	0xbd675c88	-0.05648473
243	0xbc00ea0e	-0.007868303
244	0x3dbe5866	0.092942044
245	0xbd3da479	-0.04629943
246	0x3c82eb9d	0.01598149
247	0x3dfbff93	0.12304606
248	0xbcf7c162	-0.03024358
249	0xbc378e48	-0.011203356
250	0x3d4d7867	0.050163653
251	0x3d8ea188	0.069644034
252	0xbb0d03d3	-0.0021517172
253	0xbdcdfa44	-0.100575
254	0x3d9b4015	0.07580582
255	0xbcf48e93	-0.029853141

encoder.model.bias_hh_l0 f4 [400]
0	0xbd960277	-0.07324689
1	0xbbe28a80	-0.006913483
2	0xb9c4da8b	-0.0003754686
3	0xbe51a0cd	-0.20471497
4	0xbd94f370	-0.072729945
5	0xbe3d1359	-0.18464412
6	0xbd4a7f2b	-0.049437683
7	0xbe0b1cb9	-0.13585176
8	0xbe070847	-0.13186751
9	0xbec44ec7	-0.38341352
10	0xbd77f5c5	-0.06053712
11	0xbecb1b3e	-0.39669222
12	0xbe281beb	-0.164169
13	0x3e12d86e	0.14340374
14	0xbee7aed2	-0.45250565
15	0xbe52359e	-0.20528266
16	0xbe40aa15	-0.18814881
17	0xbdc28aca	-0.09499128
18	0xbdda144b	-0.10648402
19	0xbe38c18e	-0.18042585
20	0xbeae209d	-0.34009257
21	0xbdf44dcd	-0.11928902
22	0xbdcd97e7	-0.10038739
23	0xbe0e88fe	-0.13919446
24	0xbe128d3c	-0.14311689
25	0xbe3642d2	-0.17798927
26	0xbeb3c011	-0.35107473
27	0xbec0375a	-0.3754223
28	0xbe93c725	-0.28862873
29	0xbe896986	-0.2683832
30	0xbe30bf38	-0.17260444
31	0xbe5af4ef	-0.21382497
32	0xbe7b971d	-0.24569364
33	0xbe24a932	-0.16080168
34	0xbeb49966	-0.35273284
35	0xbe7f7082	-0.24945262
36	0xbea5e680	-0.3240242
37	0xbf0c084b	-0.54700154
38	0xbea34eb7	-0.31895992
39	0x3df3f0be	0.11911152
40	0xbe9c504a	-0.30530006
41	0xbc241c8e	-0.010016574
42	0xbe9fe50c	-0.31229436
43	0xbe2a54c4	-0.16633898
44	0xbdfb27b1	-0.1226343
45	0xbe3de0e3	-0.18542819
46	0xbebd13e8	-0.3692925
47	0x3c184dc0	0.009295881
48	0xbe8974c3	-0.26846895
49	0xbed5d42b	-0.41763434
50	0xbe6f6f18	-0.23382223
51	0xbe68f274	-0.22748739
52	0xbe9bbb22	-0.30416209
53	0x3c065406	0.008198744
54	0xbebec77a	-0.37261564
55	0xbea984ad	-0.33109036
56	0xbeb7461a	-0.3579567
57	0xbc30fdb7	-0.010802678
58	0xbe4706a3	-0.19436125
59	0xbe6a96ad	-0.22909041
60	0xbe7469cb	-0.23868482
61	0xbe78fa7e	-0.24314305
62	0xbebc8d51	-0.36826566
63	0xbebc6eda	-0.36803323
64	0xbdf8afd0	-0.121429086
65	0xbe9c1544	-0.30484974
66	0xbe63e21b	-0.22254221
67	0xbec3f996	-0.38276356
68	0xbe7172d0	-0.23578954
69	0xbe88944e	-0.26675647
70	0xbe9575bb	-0.29191384
71	0xbe7e5e66	-0.24840698
72	0xbe56e3e7	-0.20985375
73	0xbe2342a1	-0.15943386
74	0xbdfc59bd	-0.12321804
75	0xbe11ff65	-0.14257582
76	0xbe9fc824	-0.31207383
77	0x3deebdfa	0.11657329
78	0xbe8e886c	-0.27838457
79	0xbe8ceaff	-0.27523038
80	0xbeb50328	-0.3535397
81	0x3c69dc4a	0.014273712
82	0xbead8f03	-0.33898172
83	0xbe011988	-0.12607396
84	0xbda281e0	-0.07934928
85	0xbdb60adb	-0.08888789
86	0xbea0e74e	-0.3142647
87	0xbb6884ec	-0.0035479618
88	0xbe99138a	-0.2989772
89	0xbea26d10	-0.31723833
90	0xbda628b0	-0.08113229
91	0xbe1c1e37	-0.15245901
92	0x3d950e5d	0.0727813
93	0xbe00b6d9	-0.12569751
94	0xbe66bd40	-0.2253313
95	0xbf0d43ea	-0.55181754
96	0xbe7b5942	-0.24545768
97	0xbdcadd83	-0.09905531
98	0xbe9dc20b	-0.30812106
99	0xbe9b1666	-0.30290526
100	0x3e84c57e	0.25931925
101	0x3d82a8c9	0.063798495
102	0x3d396109	0.045258556
103	0xbd5ccba1	-0.053905133
104	0xbdb5cffb	-0.0887756
105	0xbc19d845	-0.009389942
106	0xbd43a171	-0.047761384
107	0x3c37b6e9	0.011213043
108	0xbdc50d65	-0.096216954
109	0xbe21bdcb	-0.15795057
110	0x3da992ca	0.08279951
111	0xbe2df66f	-0.16988538
112	0x3d26c39e	0.0407139
113	0x3e54bbcc	0.20774764
114	0x3e8e518c	0.2779659
115	0x3dff1edf	0.1245706
116	0xbe20f3a0	-0.15717936
117	0xbe124c5a	-0.14286938
118	0xbe2e15b2	-0.17000464
119	0x3e27a1ba	0.16370288
120	0x3d486805	0.048927326
121	0x3ed2ba18	0.41157603
122	0xbd190c3b	-0.03736518
123	0x3d9b20b8	0.075746
124	0xbceadb1f	-0.028668938
125	0x3b7bbee4	0.003841334
126	0xbe4c38e2	-0.19943574
127	0xbe7e6f07	-0.24847041
128	0x3d2ae5fc	0.041723236
129	0xbe5547b7	-0.20828138
130	0xbe7c17fa	-0.24618521
131	0x3dc9cd63	0.098536275
132	0xbdac7c2d	-0.08422122
133	0xbe35da99	-0.1775917
134	0x3e0b7816	0.13620028
135	0xbe1fa02b	-0.15588443
136	0xbd722075	-0.059112985
137	0xbecf612d	-0.40503827
138	0xbd2a4830	-0.04157275
139	0x3e156931	0.14590909
140	0xbd926892	-0.071488515
141	0x3d0c8b89	0.03431276
142	0x3c9fa5c9	0.019488232
143	0x3d1def59	0.038558338
144	0xbd3486b6	-0.044073783
145	0xbe398f3b	-0.18121044
146	0xbd53e1a7	-0.05172887
147	0x3da13278	0.07870954
148	0xbd53e395	-0.05173071
149	0xbe553dd7	-0.20824371
150	0x3ea23f55	0.31688944
151	0x3b909471	0.004412227
152	0xbd9174fb	-0.071023904
153	0xbd990239	-0.07471127
154	0xbe840cca	-0.25791007
155	0x3d275a86	0.040857814
156	0xbe83d6a3	-0.25749692
157	0x3c6ac085	0.014328127
158	0x3c9de2b9	0.019273149
159	0xbd0b8ec0	-0.034071684
160	0xbe326c91	-0.17424227
161	0xbe09b047	-0.1344615
162	0xbea6366d	-0.324634
163	0xbd1fbd6b	-0.038999002
164	0xbd5d4a9d	-0.054026235
165	0xbe452725	-0.19253214
166	0xbcad46b0	-0.02115187
167	0xbe630b47	-0.2217227
168	0x3cf99932	0.030468557
169	0xbd7c5d92	-0.061612673
170	0xbd8ac3d3	-0.06775632
171	0x3d32ef63	0.04368533
172	0x3e142ef5	0.14471038
173	0xbe4a6089	-0.19763388
174	0xbb089dd8	-0.0020846035
175	0xbd113949	-0.035455022
176	0x3ddf81d8	0.109134376
177	0x3ea20d12	0.31650597
178	0xbdf2fe7f	-0.118649475
179	0xbe27cfc3	-0.16387849
180	0xbd052505	-0.032506008
181	0x3d60216f	0.054719385
182	0xbde2ff5a	-0.11083861
183	0xbd4d3994	-0.05010374
184	0x3d860bba	0.065452054
185	0xbd27f0a4	-0.041000977
186	0x3cc3c23e	0.023896333
187	0x3d5511bc	0.052018866
188	0xbe41223c	-0.18860716
189	0x3e098afb	0.13431923
190	0x3dd84771	0.10560501
191	0x3e23c777	0.15994059
192	0x3d7b1550	0.061299622
193	0x3d9a16a5	0.0752385
194	0xbd646805	-0.055763263
195	0xbe7b3ea6	-0.24535617
196	0x3e18e3da	0.14930668
197	0x3e161a2b	0.1465842
198	0xbddd79d9	-0.10814256
199	0x3bdb1a77	0.0066865045
200	0x3d6cf8e2	0.05785454
201	0xbe3c8583	-0.18410306
202	0xbe118721	-0.14211704
203	0xbe1f4304	-0.15552908
204	0x3e0c4e44	0.13701731
205	0xbd0b2b39	-0.033976767
206	0xbe1c5daf	-0.15270112
207	0xbdb88881	-0.09010411
208	0x3c44252a	0.011971751
209	0xbd857e8d	-0.06518278
210	0xbd8c9989	-0.06865222
211	0x3cb4e91b	0.02208381
212	0x3dad5f85	0.084654845
213	0x3e305293	0.17219
214	0x3ddc13cc	0.107459635
215	0x3cf9a93d	0.030476207
216	0x3b00ad3c	0.0019634506
217	0x3dbe87fd	0.093032815
218	0x3d94a1a3	0.07257392
219	0xbd7d7434	-0.061878398
220	0xbd5e4e14	-0.05427368
221	0x3d872abb	0.06599947
222	0xbc627000	-0.013820648
223	0x3df91bc4	0.12163499
224	0xbb72510a	-0.0036974573
225	0xbdd785ba	-0.10523553
226	0x3deba9bc	0.11506984
227	0xbe06fd04	-0.13182455
228	0xbb9a3aa8	-0.0047066994
229	0xbdb3f922	-0.08787753
230	0xbe1338f5	-0.14377196
231	0x3d569df6	0.052396737
232	0xbcee1689	-0.02906348
233	0x3d4be4f1	0.049778882
234	0xbda8d1a1	-0.082431085
235	0x3cfd2a88	0.03090407
236	0xbe1638e8	-0.14670146
237	0x3cc962ae	0.024583187
238	0xbd9d458e	-0.07679282
239	0x3e28cac9	0.16483606
240	0x3ca37e2a	0.01995762
241	0xbe0c59f8	-0.13706195
242	0x3c467b97	0.012114427
243	0xbdc87984	-0.09788802
244	0x3e0fbf71	0.14037873
245	0xbcd154b8	-0.025553092
246	0xbb9b68f9	-0.0047427383
247	0x3e254f87	0.16143619
248	0xbd1f58df	-0.038903113
249	0x3c44f273	0.012020695
250	0xbd635a70	-0.05550617
251	0x3dbbd78d	0.091719724
252	0xbc7596a6	-0.014989531
253	0xbda5d711	-0.08097661
254	0x3e1c3b2a	0.15256944
255	0xbce8ff02	-0.02844191

encoder.model.weight_ih_l1 f4 [400, 100]
0	0x3e9b2f69	0.3030961
1	0xbc08210b	-0.008308659
2	0xbe5c9c4c	-0.21543998
3	0xbe8d233b	-0.2756594
4	0xbad1ae19	-0.001599732
5	0xbe9a32b7	-0.30116817
6	0xbdc4b630	-0.09605062
7	0x3f2eee4e	0.68332374
8	0x3db9ccd2	0.090722695
9	0xbeff2169	-0.49830177
10	0xbeae6938	-0.3406465
11	0x3eff0a08	0.4981234
12	0xbd01a336	-0.03164979
13	0x3efaa83b	0.48956475
14	0x3e408389	0.18800177
15	0xbeafda1e	-0.34346098
16	0x3e8afa06	0.27143878
17	0xbe1ce0b1	-0.15320088
18	0x3d9834a0	0.074319124
19	0xbf01c866	-0.5069641
20	0xbe726707	-0.23672114
21	0xbea3a0ff	-0.31958768
22	0x3e4c7557	0.19966637
23	0x3e01f597	0.12691341
24	0xbefad792	-0.48992592
25	0xbe5ab29b	-0.21357195
26	0xbe08716e	-0.1332452
27	0xbe7f9226	-0.24958095
28	0x3ea4dc47	0.32199308
29	0xbed538ef	-0.41645
30	0xbd722249	-0.059114728
31	0x3ee3e6b9	0.44511965
32	0xbdc2eef9	-0.09518237
33	0x3e0fbe14	0.14037353
34	0xbed953a3	-0.42446622
35	0xbcda6186	-0.02665783
36	0x3e7e8302	0.24854663
37	0xbd329344	-0.043597475
38	0x3e9519b8	0.29121184
39	0x3cc8cbcf	0.024511246
40	0x3e18c253	0.14917879
41	0xbe306fc3	-0.17230134
42	0x3f0c2241	0.5473977
43	0xbea9d990	-0.331738
44	0xbda7a4c6	-0.08185725
45	0xbd8156e8	-0.06315404
46	0x3e869f30	0.26293325
47	0x3e58bbe7	0.21165429
48	0x3f0e7abc	0.5565603
49	0xbf0bc608	-0.54599047
50	0xbeb1c700	-0.34722137
51	0x3e6bee67	0.23040162
52	0x3e09c445	0.13453777
53	0xbe179513	-0.14802961
54	0x3de578c6	0.11204676
55	0x3d36be15	0.04461487
56	0xbe92ec56	-0.28695935
57	0xbdc63ddb	-0.09679767
58	0xbe68d1eb	-0.22736327
59	0xbe305900	-0.17221451
60	0xbeb71c88	-0.35763955
61	0x3e9397f5	0.28826872
62	0x3e826fe1	0.25475982
63	0x3e5877cf	0.21139453
64	0x3da6e97d	0.08150003
65	0xbf0957db	-0.5364968
66	0x3c9170fc	0.01775407
67	0x3e23e8a1	0.1600671
68	0xbf1644b7	-0.586986
69	0xbe00bdd9	-0.12572421
70	0xbd1734a2	-0.03691543
71	0x3e607a6c	0.219217
72	0x3ef0e966	0.4705307
73	0x3ed62bb4	0.41830218
74	0x3db3ce6d	0.08779607
75	0x3e62e54a	0.2215778
76	0xbef930ff	-0.48670194
77	0x3ec7c5a9	0.3901799
78	0x3d207fc7	0.039184358
79	0x3e427278	0.18988979
80	0x3e4849e4	0.19559437
81	0xbe2d9074	-0.16949636
82	0xbe75bb14	-0.23997146
83	0x3ee1f4f7	0.44132206
84	0x3e6406b5	0.22268184
85	0x3e4131de	0.18866679
86	0x3eb917a7	0.36150858
87	0xbe81c21b	-0.25343403
88	0x3e183806	0.14865121
89	0xbeb16b04	-0.3465196
90	0x3e388bd6	0.18022093
91	0xbe286efb	-0.16448586
92	0x3ed12f25	0.4085628
93	0xbdbe3315	-0.09287087
94	0xbee9d2a5	-0.45668522
95	0xbe9a35c7	-0.30119154
96	0xbd531501	-0.051533703
97	0xbee3e028	-0.44506955
98	0xbec029a4	-0.3753177
99	0x3e3c3b6d	0.18382044
100	0xbf1cd2a1	-0.61258894
101	0x3e419bdd	0.18907113
102	0x3e5bcd0a	0.21464935
103	0x3f14acb0	0.58076
104	0xbe7d6a51	-0.24747588
105	0x3eac6834	0.3367325
106	0x3d13a619	0.036047075
107	0xbd7f7f0b	-0.062377017
108	0xbe91c58d	-0.28471032
109	0x3e26a88c	0.16275233
110	0x3f1afc58	0.60541296
111	0xbe6f9eb1	-0.2340038
112	0xbe86e883	-0.26349267
113	0xbe9a03c2	-0.30080992
114	0xbdafaa06	-0.08577351
115	0xbeb5821c	-0.35450828
116	0x3f1308bc	0.574352
117	0xbe8bf736	-0.27337044
118	0xbe676718	-0.22597921
119	0xbe927aad	-0.2860922
120	0x3e5cf658	0.21578348
121	0x3d33f0e5	0.043930907
122	0xbe2aa4e2	-0.1666446
123	0x3f35af78	0.7097087
124	0xbe8d32b7	-0.27577755
125	0xbd3201e3	-0.04345883
126	0xbeea8e10	-0.4581151
127	0x3dd88ae5	0.10573367
128	0xbe24276c	-0.16030663
129	0x3d844e7b	0.064602815
130	0x3f0a63ce	0.5405854
131	0xbebab6ae	-0.364675
132	0xbe4300c3	-0.1904326
133	0xbb19a011	-0.0023441354
134	0x3e2327d7	0.15933166
135	0x3ea7040d	0.32620278
136	0x3e6c980f	0.23104881
137	0x3f40fb34	0.75383306
138	0xbc9fd1bc	-0.019509189
139	0xbe49b9c8	-0.19699776
140	0x3de5ad40	0.112146854
141	0x3e6095e7	0.21932183
142	0x3dcfa76b	0.10139354
143	0x3e40346a	0.18769994
144	0xbe8143b5	-0.2524697
145	0x3e2ffb7f	0.17185782
146	0x3ddc986d	0.107712604
147	0xbe175db7	-0.14781843
148	0x3ee6e3c4	0.45095646
149	0xbea75ddc	-0.32688797
150	0x3c91bc82	0.017790083
151	0xbe91c5e6	-0.28471297
152	0x3d7b3e41	0.061338667
153	0x3e96b172	0.29432255
154	0xbe37435a	-0.17896786
155	0x3e35c888	0.17752278
156	0xbec28e18	-0.37999034
157	0x3e8c6956	0.27424115
158	0x3dd132ef	0.10214793
159	0x3e2d6fdc	0.16937202
160	0xbf17f1db	-0.5935342
161	0x3edb6706	0.42852038
162	0x3dbc8f0e	0.09206973
163	0x3f269c11	0.6508189
164	0xbc6100b8	-0.0137330815
165	0xbc4741db	-0.012161697
166	0xbe67c475	-0.22633536
167	0x3f1eaf68	0.619864
168	0x3ddc4e84	0.10757163
169	0xbf144b74	-0.5792763
170	0x3f2900dd	0.6601694
171	0xbe75ea7c	-0.2401523
172	0x3f4ca862	0.7994443
173	0xbe86708f	-0.2625775
174	0x3ee6a101	0.4504471
175	0xbeb25e30	-0.34837484
176	0x3d90e493	0.07074847
177	0xbe437448	-0.19087327
178	0x3e7cd9a6	0.24692401
179	0x3eb3cbce	0.35116428
180	0x3eeb9522	0.46012217
181	0x3e98f14f	0.29871604
182	0x3e642690	0.22280335
183	0xbe86f79d	-0.2636079
184	0x3eb1973d	0.34685698
185	0xbe555ba8	-0.20835745
186	0x3d905f3a	0.07049413
187	0x3f252127	0.6450371
188	0xbeb7f725	-0.35930744
189	0xbf053eda	-0.5204903
190	0xbea4b59f	-0.32169816
191	0xbe34f0ad	-0.17669936
192	0xbe942387	-0.28933355
193	0xbea30293	-0.318379
194	0xbe2b158a	-0.16707435
195	0x3d0af80c	0.033927962
196	0x3e83e361	0.25759414
197	0x3e497852	0.19674805
198	0xbe1ca5ca	-0.15297619
199	0x3e81d585	0.25358215
200	0x3afb1299	0.0019155323
201	0xbb175782	-0.002309293
202	0x3e82cf3e	0.25548738
203	0x3e1f1029	0.15533508
204	0xbd4238f4	-0.047417596
205	0x3e290bd7	0.16508423
206	0x3e09fe65	0.1347595
207	0x3e8a6dae	0.27036804
208	0x3d95edd0	0.0732075
209	0x3d0131b9	0.03154156
210	0x3df504ec	0.119638294
211	0x3e60f8e0	0.21969938
212	0xbe404d5c	-0.1877951
213	0xbd4a8256	-0.049440704
214	0xbdc18318	-0.09448832
215	0xbcd09e33	-0.02546606
216	0x3e4cc199	0.19995727
217	0xbdea9642	-0.11454441
218	0xbd2bae64	-0.04191436
219	0x3dbb27d9	0.0913846
220	0x3e36a47b	0.17836182
221	0xbe0bf494	-0.13667518
222	0xbe0294a2	-0.12752011
223	0xbe0fa17b	-0.14026444
224	0xbe54733e	-0.20747086
225	0x3e46353c	0.19356245
226	0xbe38251e	-0.17982909
227	0xbdb5cf9e	-0.088774905
228	0x3ca8c807	0.020603193
229	0xbd8655b7	-0.065593176
230	0x3d99421e	0.07483314
231	0xbd5cedcb	-0.053937715
232	0x3da41977	0.080126695
233	0xbe6b6d39	-0.22990884
234	0x3c3efc4a	0.01165683
235	0x3d902f4e	0.07040273
236	0x3dc0526e	0.09390722
237	0x3e4cb7c5	0.19991978
238	0xbd0fb1ef	-0.0350818
239	0xbd4f3fbc	-0.05059789
240	0x3e4b68b3	0.19864158
241	0x3e3cd324	0.18439919
242	0xbd53d4cd	-0.051716615
243	0x3e2294bf	0.15877055
244	0xbd934c95	-0.07192341
245	0x3ead4354	0.3384043
246	0x3c9e694f	0.019337324
247	0xbe21cf62	-0.15801767
248	0x3cc03aa4	0.023465462
249	0xbd842559	-0.06452436
250	0xbe0af00e	-0.13568136
251	0xbe0be126	-0.13660106
252	0x3dfa7d27	0.12230902
253	0x3e31868f	0.17336486
254	0xbcf28411	-0.02960399
255	0xbe6ad508	-0.22932827

encoder.model.weight_hh_l1 f4 [400, 100]
0	0xbed92685	-0.424122
1	0x3e164509	0.14674772
2	0x3ef8c966	0.48591155
3	0xbe3f4afd	-0.1868095
4	0xbee007ab	-0.4375585
5	0xbe0f73bf	-0.14008997
6	0xbea789a9	-0.32722214
7	0x3e30db32	0.17271116
8	0x3d7bee2a	0.061506428
9	0xbe32c139	-0.17456521
10	0xbe0ac297	-0.13550793
11	0xbdade052	-0.08490051
12	0xbe48e507	-0.19618617
13	0xbd07e854	-0.03318055
14	0xbe04a8a1	-0.12954952
15	0x3e8dd910	0.27704668
16	0xbd8713b5	-0.06595556
17	0xbde5a297	-0.11212652
18	0x3e8c1c6f	0.27365443
19	0x3f400976	0.75014436
20	0xbefaf998	-0.4901855
21	0xbe2ca182	-0.16858485
22	0xbcfe2d85	-0.031027565
23	0xbf27ee26	-0.6559776
24	0xbe72f621	-0.23726703
25	0xbdac2043	-0.08404591
26	0xbd8be39e	-0.06830524
27	0xbe6b1063	-0.2295547
28	0xbe561ae6	-0.20908698
29	0x3c874253	0.016511118
30	0xbc2e2a1d	-0.010630158
31	0xbeaeae5f	-0.3411741
32	0xbe31c84c	-0.17361563
33	0x3ad1c2f4	0.0016003535
34	0x3cab940c	0.020944618
35	0x3ed7e509	0.42166927
36	0x3df17739	0.11790318
37	0x3c8b25f1	0.016985865
38	0x3cd5e0bb	0.026108136
39	0xbe7cf0d9	-0.24701251
40	0x3e643420	0.22285509
41	0xbe424cc5	-0.18974598
42	0xbe0bed71	-0.13664795
43	0xbee8d0ce	-0.45471805
44	0xbe00d0f9	-0.12579717
45	0xbea8a66b	-0.32939467
46	0xbc7fbe52	-0.015609341
47	0xbe00b4ca	-0.12568966
48	0xbd4f9d17	-0.050686922
49	0xbdc870e5	-0.09787158
50	0x3c00b8b9	0.007856541
51	0x3dcba929	0.09944374
52	0xbe162949	-0.14664187
53	0x3d684f8a	0.05671648
54	0xbc56c446	-0.013108319
55	0xbe85e0ab	-0.2614797
56	0xbe5e92a9	-0.21735634
57	0xbd0ef9b1	-0.034906093
58	0x3d2722a7	0.04080453
59	0xbea75f19	-0.3268974
60	0xbd089475	-0.033344705
61	0x3d9ee0ef	0.077577464
62	0x3da71908	0.08159071
63	0x3d845202	0.06460954
64	0xbd21bc53	-0.03948624
65	0xbde9ff01	-0.11425591
66	0xbe248dd5	-0.1606973
67	0x3dc7b18d	0.09750662
68	0xbd0d625e	-0.03451764
69	0x3e8e2238	0.27760482
70	0x3e303ce8	0.17210734
71	0xbe2752ab	-0.16340129
72	0xbe367fc4	-0.17822176
73	0xbd4ef404	-0.05052568
74	0x3e65e54d	0.22450753
75	0xbe060fe7	-0.13092004
76	0x3dc4a3c6	0.0960155
77	0x3cd8d535	0.026468853
78	0x3e4bb713	0.19894056
79	0xbc53fdff	-0.012938975
80	0x3dfacd7f	0.122462265
81	0xbe27ab00	-0.16373825
82	0x3ddd5826	0.108078286
83	0xbde22515	-0.11042229
84	0x3daafa38	0.08348507
85	0x3e190824	0.14944512
86	0xbe9b5fb8	-0.30346465
87	0x3e732d15	0.23747666
88	0x3db5e048	0.08880669
89	0x3ee5fd76	0.44919938
90	0x3cd1bb99	0.025602149
91	0xbdbd2442	-0.09235431
92	0x3eacbcb3	0.33737716
93	0xbddf6743	-0.109083675
94	0x3e8c2753	0.27373752
95	0xbf44e3b2	-0.76909935
96	0xbe7d4fe3	-0.24737506
97	0xbdb6f2a2	-0.08932997
98	0xbe69729b	-0.22797625
99	0xbcf098b4	-0.02936969
100	0xbe835030	-0.25647116
101	0xbc47c0ba	-0.012191946
102	0xbe0fb594	-0.1403411
103	0xbbd1aac5	-0.006398531
104	0x3e145790	0.14486527
105	0x3e6da729	0.23208298
106	0x3e4177dd	0.1889338
107	0xbd556c73	-0.05210538
108	0x3d00c6dc	0.031439647
109	0xbe2d2839	-0.16909875
110	0xbe7c11a7	-0.24616109
111	0x3eb7ba9f	0.35884568
112	0x3dea4414	0.11438766
113	0xbdef4f0c	-0.11684999
114	0xbe145ad6	-0.14487776
115	0x3dec7f78	0.1154775
116	0x3db9dec9	0.09075696
117	0x3e80b1e1	0.2513571
118	0xbdad654a	-0.08466585
119	0x3cb80168	0.022461608
120	0xbcfe793e	-0.031063672
121	0x3e6c2784	0.23061949
122	0xbd48443d	-0.048893202
123	0xbe729790	-0.23690629
124	0xbd0ce1ed	-0.034395147
125	0x3ee7dd37	0.4528596
126	0xbeb15406	-0.34634417
127	0x3e1c7677	0.15279566
128	0x3e8ed142	0.27894026
129	0xbe52d312	-0.2058833
130	0xbd829366	-0.0637577
131	0xbdedde32	-0.11614646
132	0xbb3e1250	-0.0029002614
133	0x3e8791aa	0.2647832
134	0xbda25a74	-0.07927409
135	0x3d81591f	0.063158266
136	0xbc00eb50	-0.007868603
137	0xbe189cbc	-0.1490354
138	0xbe66a490	-0.22523713
139	0x3e38e50a	0.18056121
140	0x3eb1ba76	0.3471257
141	0xbe201a89	-0.15635122
142	0x3ecf631c	0.40505302
143	0xbde0e7f1	-0.10981739
144	0xbd5ffd25	-0.054684777
145	0xbe3309c1	-0.1748419
146	0xbe8ac555	-0.27103677
147	0xbd85e9ca	-0.06538732
148	0xbe243c14	-0.16038543
149	0xbe9e6fcb	-0.30944666
150	0xbeb7e091	-0.35913518
151	0xbcbd1ffa	-0.023086537
152	0xbbcb0322	-0.006195442
153	0xbda1b288	-0.0789538
154	0xbc3beb21	-0.011469633
155	0xbe96354f	-0.29337546
156	0x3dc3a854	0.095535904
157	0xbe00b452	-0.12568787
158	0x3bacb2a6	0.00527032
159	0xbee5773e	-0.44817537
160	0xbe0334e4	-0.12813145
161	0x3e541e24	0.20714623
162	0xbdb88ad9	-0.09010858
163	0xbe2cac9f	-0.16862725
164	0xbd56c7ed	-0.052436758
165	0xbdbcc1c3	-0.092166446
166	0x3e314aec	0.17313737
167	0x3e609ae4	0.21934086
168	0xbe5da252	-0.21643952
169	0x3dc87eb0	0.09789789
170	0xbe9193ab	-0.28432974
171	0xbc9e1b66	-0.019300174
172	0xbd80d07b	-0.062897645
173	0xbdbef27f	-0.09323596
174	0xbef4ece0	-0.4783697
175	0x3cb40dc4	0.02197922
176	0xbdb9aec3	-0.09066536
177	0x3e1cd2f0	0.15314841
178	0xbeaf29d2	-0.34211594
179	0x3b4c9d42	0.0031221663
180	0xbdb6546d	-0.08902822
181	0x3e78afef	0.24285863
182	0xbe2443a6	-0.16041431
183	0x3e3a8fc9	0.18218912
184	0xbea1c511	-0.31595662
185	0xbec25558	-0.37955737
186	0x3c5ed4ce	0.013600541
187	0xbe97653e	-0.2956943
188	0x3f02b32f	0.5105466
189	0x3f12b0fe	0.5730132
190	0xbe52789d	-0.20553823
191	0xbeb33d63	-0.35007772
192	0xbd111fce	-0.035430722
193	0x3e6b6987	0.22989474
194	0xbdebd669	-0.11515505
195	0xbdb6b4df	-0.08921217
196	0xbdea9fc6	-0.114562556
197	0x3e07f006	0.13275155
198	0x3df7194d	0.120653726
199	0x3e2f4227	0.17115079
200	0x3e6bd955	0.23032124
201	0xbd4c03cd	-0.049808312
202	0xbd859eaa	-0.065244034
203	0x3da9bedf	0.08288359
204	0xbc316c17	-0.010828993
205	0xbe3610e7	-0.17779885
206	0x3e20dff1	0.15710427
207	0xbddf7453	-0.10910859
208	0xbd6c5ca5	-0.05770554
209	0x3d92a755	0.07160822
210	0xbd307cc5	-0.04308774
211	0xbe989cd9	-0.29807165
212	0x3deba5b4	0.11506215
213	0x3c162c8b	0.009165893
214	0x3e8e5856	0.2780177
215	0xbe1d9e97	-0.15392528
216	0xbe14d7e3	-0.14535479
217	0x3bb6e47f	0.005581438
218	0x3d6fab08	0.058512717
219	0x3d5c9b41	0.053859
220	0x3e278741	0.16360189
221	0x3c7dc991	0.015489952
222	0x3e1e4c58	0.1545881
223	0x3c0047d6	0.007829627
224	0xbd6afb29	-0.05736843
225	0x3d0b663a	0.034033038
226	0x3ced5e6e	0.028975692
227	0x3d3253e2	0.043537028
228	0xbd3b57f9	-0.045738194
229	0x3d5d1c2f	0.053981956
230	0xbe17dcc9	-0.14830317
231	0x3e0f79f1	0.1401136
232	0x3df92c2e	0.1216663
233	0xbd06fa04	-0.032953277
234	0xbd9dc9f2	-0.07704534
235	0xbe1e6cd9	-0.1547121
236	0x3e17b44a	0.14814869
237	0xbc78a7b1	-0.0151766995
238	0x3ddb60cf	0.10711824
239	0xbe4514b1	-0.19246174
240	0xbe7cd047	-0.24688827
241	0x3e838f42	0.25695235
242	0xbea411b3	-0.32044753
243	0x3e2271e0	0.15863752
244	0x3ddf86b0	0.109143615
245	0x3dea4ed2	0.11440815
246	0x3a45491a	0.00075258466
247	0x3cde389c	0.027126603
248	0x3ca8dffa	0.020614613
249	0x3d0ac892	0.033882685
250	0xbe4f5640	-0.20247746
251	0xbeaf2ae9	-0.34212425
252	0x3e923b3e	0.28560823
253	0xbda66454	-0.08124605
254	0xbcce928a	-0.02521636
255	0x3d97e4c0	0.074166775

encoder.model.bias_ih_l1 f4 [400]
0	0xbd236c51	-0.03989822
1	0xbd96219b	-0.073306285
2	0xbceb17d1	-0.02869788
3	0x3cbcf659	0.023066686
4	0xbdf492c7	-0.11942058
5	0xbe39f22c	-0.18158787
6	0x3d430758	0.047614425
7	0xbed80984	-0.4219476
8	0xbe58a50a	-0.21156707
9	0xbdfd1402	-0.12357332
10	0xbe965d3a	-0.29368
11	0xbe09eace	-0.13468477
12	0xbe22a6c0	-0.15883923
13	0xbd5ca903	-0.05387212
14	0xbe110bbf	-0.14164637
15	0xbda5742a	-0.08078797
16	0xbe1411a2	-0.14459851
17	0xbedee2c8	-0.43532395
18	0xbe3a1a93	-0.181742
19	0xbecb4b4b	-0.3970588
20	0xbde8eee5	-0.113736905
21	0xbdbf0d94	-0.09328762
22	0xbd122f63	-0.035689723
23	0x3d990c62	0.07473065
24	0xbe71f80c	-0.23629779
25	0xbe333167	-0.17499314
26	0xbdbe4cb2	-0.09291972
27	0xbe277a24	-0.16355187
28	0xbcbb8726	-0.022891592
29	0xbdc28805	-0.094986
30	0xbdd3f6cd	-0.10349808
31	0xbdf2f81f	-0.118637316
32	0xbd983d5d	-0.07433579
33	0xbe865653	-0.26237735
34	0x3ca50a1e	0.020146426
35	0xbddba101	-0.107240684
36	0xbd54b6f8	-0.051932305
37	0x3d84a9d9	0.06477708
38	0xbe3dac32	-0.18522719
39	0xbe199732	-0.14999083
40	0xbcea849f	-0.028627692
41	0x3ddf6ca3	0.10909393
42	0x3ddc9256	0.10770099
43	0xbe40232e	-0.1876342
44	0xbce5a6f4	-0.028033711
45	0xbdac5e53	-0.084164284
46	0xbe91886c	-0.28424394
47	0xbbd888fe	-0.0066081276
48	0xbe45f9f7	-0.19333635
49	0xbe21201c	-0.15734905
50	0xbe842c38	-0.25814986
51	0xbe4b4aca	-0.19852749
52	0xbc81ac5a	-0.015829254
53	0xbe4ea978	-0.20181835
54	0xbe643cb1	-0.22288777
55	0x3d6fcded	0.058545996
56	0xbc21a2aa	-0.009865442
57	0xbe886ef1	-0.26647142
58	0xbe7c8a18	-0.24662054
59	0xbea4e919	-0.3220909
60	0xbe7a0bac	-0.24418515
61	0xbd07c797	-0.033149328
62	0xbd805a97	-0.06267279
63	0xbe957068	-0.29187322
64	0xbe8afe8d	-0.27147332
65	0x3d86cd22	0.06582095
66	0xbe43f9e2	-0.19138291
67	0xbe9bcbd7	-0.30428955
68	0xbd4165ff	-0.04721641
69	0xbe30adcd	-0.172538
70	0xbdbd38ba	-0.09239335
71	0x3dd18058	0.10229558
72	0xbe95dd23	-0.29270276
73	0x3cac7dc6	0.021056067
74	0xbe01ba83	-0.12668805
75	0xbe0e6d1d	-0.13908811
76	0xbe3250b9	-0.17413606
77	0xbe68e390	-0.22743058
78	0xbdb042f5	-0.08606521
79	0xbe64d563	-0.22347026
80	0xbcb39746	-0.021922719
81	0x3ddd0bf2	0.10793294
82	0x3d26d63f	0.040731665
83	0xbe8ef7af	-0.27923343
84	0xbeac6ed2	-0.336783
85	0xbbfcec1d	-0.0077185766
86	0xbe731600	-0.23738861
87	0xbe25f713	-0.16207533
88	0xbe4a5ddb	-0.19762366
89	0xbdfbcc5a	-0.12294836
90	0x3e2f0275	0.17090781
91	0xbe50c272	-0.20386675
92	0xbda83ffe	-0.082153305
93	0xbe46ed89	-0.1942655
94	0xbdea5368	-0.1144169
95	0xbe07dafb	-0.13267128
96	0xbdc73865	-0.09727553
97	0x3bf43b4b	0.0074533573
98	0x3e09ae04	0.13445288
99	0xbdf9767f	-0.121808045
100	0x3e34cda2	0.17656568
101	0x3b9cc673	0.004784399
102	0x3e5b9c29	0.21446289
103	0x3e8459e2	0.25849825
104	0x3b092c06	0.002093078
105	0xbd84b3e2	-0.064796224
106	0x3e311fb2	0.17297247
107	0xbe67c4ce	-0.22633669
108	0xbd621c61	-0.055202845
109	0x3e265117	0.16241871
110	0x3e005855	0.12533696
111	0x3dcaebef	0.09908282
112	0x3e01fcd5	0.12694104
113	0x3e8399c0	0.2570324
114	0x3e1d7ec7	0.15380393
115	0xbdbce211	-0.09222806
116	0x3e0b5f6c	0.1361062
117	0x3e987bb6	0.29781884
118	0xbd864488	-0.0655604
119	0x3e9b8b08	0.3037951
120	0xbdc44fbd	-0.09585521
121	0x3e395a56	0.18100867
122	0x3e941413	0.28921565
123	0xbe1a857d	-0.15089984
124	0xbc5bd04d	-0.013416362
125	0x3e9fb3df	0.31191918
126	0x3dde9d21	0.10869814
127	0x3e0add85	0.13561065
128	0xbd58fc6b	-0.0529751
129	0x3e8285c5	0.25492683
130	0x3e0d5b86	0.13804445
131	0xbdb9c029	-0.09069855
132	0x3c0c53bc	0.008564886
133	0xbd3193a8	-0.043353707
134	0x3e0ca373	0.13734226
135	0x3dfe2e98	0.12411231
136	0xbdd3fb1f	-0.10350632
137	0x3e5b4747	0.21413909
138	0x3c879fb4	0.016555645
139	0xbd4903a7	-0.04907575
140	0xb92be398	-0.00016392616
141	0x3ea33389	0.31875256
142	0x3e7e23ae	0.24818298
143	0x3e8d1582	0.27555472
144	0xbde27774	-0.1105794
145	0x3ddcddbe	0.107844815
146	0xbe5698d4	-0.20956737
147	0x3e829d15	0.2551047
148	0x3d0f9f11	0.035063807
149	0xbd9d11ef	-0.07669436
150	0xbd808512	-0.06275381
151	0x3e02a814	0.12759429
152	0x3e1da155	0.15393575
153	0x3e51c513	0.20485334
154	0xbd9d7ef3	-0.07690229
155	0x3e597215	0.21234925
156	0xbd1d40f4	-0.038392022
157	0x3dd9654c	0.10615024
158	0xbc98db24	-0.018659182
159	0xbda93c53	-0.08263459
160	0x3e81ac7e	0.25326914
161	0xbca487f9	-0.020084368
162	0x3c93b6ae	0.018031444
163	0xbd0f2abd	-0.034952868
164	0x3e3abacb	0.18235318
165	0x3cf27a38	0.029599294
166	0xbde33351	-0.11093772
167	0xbd01f265	-0.031725306
168	0x3e3b824d	0.18311425
169	0xbd332d77	-0.04374453
170	0x3c6a28c9	0.0142919505
171	0x3e77263d	0.2413568
172	0xbd5434e3	-0.05180825
173	0x3dad17ad	0.084517814
174	0xbddc54ca	-0.1075836
175	0xbd45eed2	-0.04832346
176	0xbd2cdbd3	-0.04220183
177	0x3e365e1c	0.17809337
178	0xbcdf2ab7	-0.027242048
179	0x3e0652b2	0.13117483
180	0x3ea057bf	0.31316945
181	0x3e75e25e	0.24012133
182	0x3dd6267f	0.10456561
183	0xbd9263e5	-0.071479596
184	0xbe3405f2	-0.17580393
185	0x3e5556ff	0.20833968
186	0x3e34e872	0.17666796
187	0x3cf16eab	0.029471716
188	0xbd25e4bc	-0.04050134
189	0x3c985d88	0.018599287
190	0x3e8ab2f2	0.2708965
191	0x3eb7a5f3	0.35868797
192	0x3d9cdad1	0.076589234
193	0xbdba242f	-0.09088933
194	0x3e71ce11	0.23613764
195	0x3d89f2cb	0.06735762
196	0x3b038b3a	0.0020072
197	0x3cf812a1	0.03028232
198	0x3e57fee5	0.21093328
199	0x3e9ad656	0.3024165
200	0x364f5080	3.089226e-06
201	0x3d7f9b43	0.06240393
202	0x3d314dad	0.043286968
203	0x3ddab91d	0.10679839
204	0xbe55af09	-0.20867552
205	0x3dd016f9	0.10160632
206	0xbe3625c5	-0.17787845
207	0xbc9f9e05	-0.01948453
208	0x3ccbbdc3	0.024870759
209	0x3d8e248d	0.06940565
210	0xbe0c2ac5	-0.1368819
211	0x3cc60dd7	0.024176521
212	0xbe34ad7a	-0.17644301
213	0xbceb7279	-0.028741108
214	0xbb94f133	-0.0045453548
215	0x3d9ea45e	0.07746194
216	0xbe1309b2	-0.14359167
217	0x3a069ae8	0.0005134777
218	0x3cf95281	0.030434849
219	0x3d2be5e4	0.041967288
220	0xbc2760c7	-0.010215945
221	0xbe52286d	-0.20523234
222	0x3dbf69dd	0.09346364
223	0x3dbe41ea	0.09289916
224	0x3d2200ab	0.03955142
225	0xbd663f8d	-0.05621295
226	0xbccbefe0	-0.024894655
227	0x3b220818	0.0024724063
228	0xbe0e0faf	-0.1387317
229	0x3e219083	0.15777783
230	0xbd53b606	-0.051687263
231	0xbda1d30d	-0.07901583
232	0x3dda8178	0.106692255
233	0xbe0d6860	-0.13809347
234	0x388226b0	6.206089e-05
235	0x3df42f95	0.11923138
236	0xbb93b9bc	-0.0045082252
237	0x3dbbf384	0.09177306
238	0xbb560746	-0.0032658144
239	0xbe8c6c80	-0.2742653
240	0x3e050fa5	0.12994249
241	0x3dfa3ea0	0.12218976
242	0xbde28046	-0.110596225
243	0xbdc1ac2a	-0.09456666
244	0x3e7ce6bc	0.24697393
245	0xbc6b0446	-0.014344281
246	0x3c926c78	0.017873988
247	0x3d4b7c29	0.049678955
248	0x3da74364	0.081671506
249	0xbde9025c	-0.11377403
250	0x3d029d78	0.031888455
251	0xbdb3ec9b	-0.08785363
252	0x3d851b1b	0.064993106
253	0xbdeacc9c	-0.114648074
254	0xbd42e602	-0.047582634
255	0xbcf03695	-0.029322902
